Other/Deeploc/experiments/base_model/last.pth (torch_old, 728976 bytes, 57 tensors)

embedding.weight f4 [21, 20]
-1.0645295 0.43785033 -0.3256378 -0.8607379 -0.26568753 0.6795595 0.9988119 -1.1228487
-0.6507518 1.1743745 -2.031976 -1.6040274 -0.5118346 -0.24099153 0.38765886 0.20501857
1.1945254 -0.3947711 -1.1996778 -0.8975143 -0.7272806 0.15329064 -1.3345807 0.29913715
-1.2055595 -0.37098742 -0.94123644 -0.2515811 0.64821184 -1.4802635 0.34595942 0.9250132
-2.125797 -1.0459734 0.8811049 -0.8217878 0.11592972 -0.42029247 -1.127506 -0.27789205
0.39742926 0.87961173 -1.5828433 -0.26657945 -0.2646005 -0.38849023 -0.041146353 -0.70275396
-0.5088288 0.26774797 -1.6556077 2.214446 -0.202385 0.132494 -1.6427239 1.0797143
-0.5112884 -0.09401221 -0.4394569 0.70324206 -0.95317125 1.2065771 0.30733404 1.059822
0.087632634 -0.068052284 0.684745 0.66589195 -0.8040544 1.2837379 -1.9933288 -0.8066169
-0.24434888 1.3086823 -0.22321256 0.5021026 -0.17376931 0.29527852 0.33804312 1.0211437
-0.3886741 -1.9844286 0.28122246 -0.4877288 0.90619814 -0.71694154 -1.1491911 0.4465125
-0.9982719 -0.051752873 -0.1985133 -0.24411282 -0.32371768 0.0016294944 -0.7726318 -0.505321
-0.77642536 0.08179366 0.556116 0.7733243 -0.16182333 0.9527566 -0.6139335 -0.7427858
0.31306583 0.29617068 -0.42411962 0.68080413 1.6641649 0.20508076 -0.5894206 -2.53392
1.4147646 -2.2136729 -1.6718855 -0.7872676 -0.47776294 -0.32706645 -0.7717364 1.4712536
1.2805576 -1.2064776 -0.37867615 0.9900061 -0.27635825 1.0513108 1.0026081 -0.552866
-0.13916636 -0.684477 -0.2208971 0.007893035 -0.061977502 -0.79671365 1.7776775 0.086138695
0.8728368 0.80164415 -0.08351352 -0.2356811 -0.5910867 -0.48127705 -0.05700043 -0.37350225
-0.43655586 1.7392282 -0.071052454 1.3209672 -0.8430536 0.9103139 -1.7297076 1.2702771
-0.66568637 0.35864747 0.16482788 0.7519128 0.36649612 -0.6192725 -0.8175328 0.41892743
0.87879187 0.99300677 -0.14900526 -0.26991504 1.3592136 0.16796464 -1.0399123 1.4082025
-0.21228772 0.12192499 0.22198714 1.8667771 1.29913 -0.0004287532 -1.1624225 0.23220773
-0.05712477 -0.038372017 0.47725913 0.32194838 0.04237905 0.45851022 -0.46402723 1.4480356
-0.12326804 -1.2980404 0.39524293 -0.3709056 -0.0061992276 0.7676207 -1.086547 -0.71205366
0.3653452 0.2580772 0.6137264 1.3893957 -0.35454574 -0.91435957 -0.2652377 -0.18120061
-0.78991205 -1.0316643 -0.7323771 0.43623945 0.81039983 -2.1731703 -1.4280925 -0.58678025
-0.18237036 1.0891718 -0.7701094 0.29420543 0.09402895 1.0458822 -0.6852158 -2.5305688
-0.21971919 -0.48237634 1.6898451 0.45644397 1.1339684 -1.3981547 -1.509432 0.0072756703
-0.8149027 0.25477463 0.20701559 0.11542957 -0.067705624 -1.9840007 -0.197378 -1.3534559
1.0978411 0.47480655 0.79858696 -0.5038345 0.45379212 -1.0746549 0.35843748 0.19846644
1.1603822 0.52802825 0.5651173 0.080577224 -0.5632508 -1.3222471 1.2861692 0.49453828
0.712255 -0.5276216 -1.3884377 0.73285586 2.0453274 -0.20058124 -1.1968031 -0.30432358
00000000: 8142 88bf eb2d e03e ffb9 a6be 5259 5cbf
00000010: 3208 88be 9df7 2d3f 23b2 7f3f 82b9 8fbf
00000020: ac97 26bf e751 963f e50b 02c0 c550 cdbf
00000030: 9807 03bf 7cc6 76be 397b c63e 63f0 513e
00000040: 35e6 983f 701f cabe 0b8f 99bf 7fc3 65bf
00000050: 102f 3abf 39f8 1c3e 8ad3 aabf 8128 993e
00000060: c64f 9abf 10f2 bdbe dff4 70bf 3dcf 80be
00000070: 36f1 253f 4679 bdbf 9821 b13e aacd 6c3f
00000080: 0f0d 08c0 75e2 85bf 1790 613f af60 52bf
00000090: 906c ed3d 9330 d7be 1e52 90bf de47 8ebe
000000a0: d97b cb3e 3c2e 613f 9c9a cabf 1a7d 88be
000000b0: b779 87be 31e8 c6be 1489 28bd afe7 33bf
000000c0: 9b42 02bf 4316 893e f4ea d3bf 7cb9 0d40
000000d0: 033e 4fbe 82ac 073e c744 d2bf 1434 8a3f
000000e0: cce3 02bf 7989 c0bd 7f00 e1be ac07 343f
000000f0: 0803 74bf 1e71 9a3f e35a 9d3e 3fa8 873f
00000100: bd78 b33d ff5e 8bbd 734b 2f3f e577 2a3f
00000110: 82d6 4dbf 8651 a43f 6625 ffbf 727e 4ebf
00000120: 9836 7abe e782 a73f d591 64be cc89 003f
00000130: 95f0 31be bf2e 973e fd13 ad3e d6b4 823f
00000140: 4b00 c7be c201 febf 64fc 8f3e 97b7 f9be
00000150: 9afc 673f 7b89 37bf b218 93bf 499d e43e
00000160: bf8e 7fbf d2fa 53bd 1247 4bbe b6f8 79be
00000170: 53be a5be c294 d53a 33cb 45bf b85c 01bf
00000180: d0c3 46bf 6f83 a73d 9e5d 0e3f 95f8 453f
00000190: 04b5 25be dbe7 733f bf2a 1dbf 3627 3ebf
000001a0: 2a4a a03e afa3 973e 3526 d9be 2e49 2e3f
000001b0: 5b03 d53f b100 523e 45e4 16bf bf2b 22c0
000001c0: 0217 b53f d1ac 0dc0 5800 d6bf 5f8a 49bf
000001d0: 589d f4be 4175 a7be 8490 45bf 0a52 bc3f
000001e0: 50e9 a33f dc6d 9abf d7e1 c1be 0a71 7d3f
000001f0: d47e 8dbe 5a91 863f 7655 803f a088 0dbf
00000200: a081 0ebe e239 2fbf d932 62be ca51 013c
00000210: 1fdc 7dbd 6df5 4bbf f08a e33f 7c69 b03d
00000220: 3c72 5f3f 8d38 4d3f 2309 abbd 6356 71be
00000230: 7551 17bf f269 f6be 4879 69bd b03b bfbe
00000240: 4084 dfbe 089f de3f f383 91bd 7415 a93f
00000250: 5cd2 57bf 550a 693f 0f67 ddbf 7198 a23f
00000260: 6c6a 2abf a4a0 b73e a4c8 283e 5b7d 403f
00000270: 61a5 bb3e a488 1ebf d449 51bf a87d d63e
00000280: 81f8 603f b135 7e3f d694 18be 4e32 8abe
00000290: b6fa ad3f ecfe 2b3e d91b 85bf fb3f b43f
000002a0: f461 59be cfb3 f93d 9950 633e 8df2 ee3f
000002b0: e449 a63f 48ca e0b9 43ca 94bf ddc7 6d3e
000002c0: aafb 69bd fa2b 1dbd 4f5b f43e 6bd6 a43e
000002d0: a895 2d3d dac1 ea3e fa94 edbe 3b59 b93f
000002e0: f473 fcbd 3026 a6bf 485d ca3e 57e7 bdbe
000002f0: e422 cbbb ca82 443f f913 8bbf 2649 36bf
00000300: 870e bb3e b222 843e 2c1d 1d3f b8d7 b13f
00000310: 0587 b5be 7813 6abf 3ccd 87be a78c 39be
00000320: ad37 4abf 930d 84bf 117d 3bbf c75a df3e
00000330: 5d76 4f3f 3915 0bc0 bccb b6bf 3b37 16bf
00000340: 4cbf 3abe fb69 8b3f e425 45bf 18a2 963e
00000350: 4092 c03d 78df 853f 4d6a 2fbf d7f4 21c0
00000360: 11fe 60be 08fa f6be d84c d83f 06b3 e93e
00000370: e025 913f bcf6 b2bf 1135 c1bf bf68 ee3b
00000380: 779d 50bf d271 823e e5fb 533e 5766 ec3d
00000390: 3fa9 8abd bcf3 fdbf 751d 4abe 0b3e adbf
000003a0: 0f86 8c3f d819 f33e 3270 4c3f 4cfb 00bf
000003b0: 7157 e83e 4b8e 89bf 1e85 b73e c93a 4b3e
000003c0: 6787 943f dc2c 073f 87ab 103f ac05 a53d
000003d0: 3431 10bf 653f a9bf 31a1 a43f 1f34 fd3e
000003e0: 5856 363f 3612 07bf 54b8 b1bf 719c 3b3f
000003f0: a5e6 0240 2b65 4dbe d830 99bf 4dd0 9bbe

lstm.weight_ih_l0 f4 [160, 20]
0.06920498 -0.122649714 -0.023265442 0.06441818 0.21021464 -0.10890743 0.09254579 0.1382944
-0.046567064 -0.14920327 0.01829944 0.14331684 0.097223334 0.08537634 0.116860844 -0.10386512
-0.105465166 -0.0020857197 -0.046979036 0.066063516 0.088868275 -0.10149371 -0.0147933485 0.12809289
-0.013429812 -0.056026466 0.15238209 0.16625296 -0.09999375 0.021511659 0.022084322 -0.022093836
0.060373843 0.14715493 0.0018325081 0.045040566 0.16440332 -0.040431004 -0.067185976 0.0024595025
-0.089431785 -0.18934141 0.12408904 -0.1776819 0.024189644 -0.02296789 -0.05068878 0.03756327
-0.047026984 -0.015835224 -0.07384683 0.14174029 0.09044508 0.089617886 0.059754096 -0.12691279
-0.040583774 0.1153214 0.06068495 0.18341696 0.068461664 0.1426813 -0.17127739 -0.13037308
-0.18386114 -0.100907296 0.0010737742 -0.08502338 0.06996251 -0.13827722 0.13806148 -0.040078368
0.090214856 -0.17560126 0.088097796 0.10355937 0.15307759 0.050354663 -0.017554766 -0.0116196945
0.0137787815 -0.052284934 -0.049428586 -0.008776132 -0.022305815 0.014363875 -0.055042394 -0.087997794
0.13647145 -0.16934703 0.15904309 -0.117475025 0.072955765 -0.086441256 0.05798964 -0.15517011
0.04912547 -0.044765316 -0.03906701 -0.010189878 -0.04718954 -0.041112915 0.110906176 0.05470482
-0.18630931 -0.13057698 -0.092643954 -0.10798346 -0.11638559 0.08965014 -0.037325263 -0.16778134
-0.110499404 -0.07408675 0.16042757 0.10109296 0.07370644 -0.103147246 0.1314003 0.09420114
0.10866091 -0.0779789 -0.03682421 -0.107360445 -0.15420371 0.14707641 -0.0009567689 -0.05113776
-0.12633936 -0.05535767 0.10208891 0.12635729 0.054463454 0.12427133 -0.0576884 0.07703592
-0.14282882 0.16345549 -0.1510143 -0.14858155 0.016867442 -0.028050948 0.072977364 0.06239495
0.18985224 -0.13938026 -0.089259334 -0.1276581 0.04329249 0.033702023 -0.15957732 0.016875392
-0.016815443 -0.04746705 0.1674398 -0.039707955 -0.12182568 -0.024576237 0.06838667 -0.085844815
0.1258221 -0.062444687 -0.028546454 0.14188538 -0.06447328 0.08192342 0.099908955 -0.04552312
-0.1076755 0.03335488 0.15009552 -0.13607553 -0.12070985 0.1879295 -0.10634281 -0.1775878
-0.15784778 0.005884786 0.1122345 0.17246068 -0.15142915 0.058005247 0.10853912 0.07987609
-0.08363767 -0.033155773 -0.104442924 -0.08939458 -0.12457067 -0.119540766 0.068499245 -0.06455603
-0.1601408 -0.10251624 0.045838088 -0.08808826 -0.07598102 -0.005293886 -0.08742991 0.010823538
-0.061163563 0.13729875 -0.10508215 0.060958568 -0.041617118 0.053928122 0.17855452 0.15890631
-0.09175903 0.051062025 0.055631384 -0.13007417 0.13578211 0.009674159 0.10840155 -0.08219646
0.07130792 -0.079176724 -0.14690365 -0.0736171 0.041119814 0.037586104 -0.18719895 0.08938663
-0.091351025 -0.05581956 0.22276208 -0.119525515 -0.041373085 0.09975851 -0.058691625 -0.110070616
0.07223602 0.090562575 0.08614242 0.063856736 0.20033173 0.042932652 0.042672325 -0.0020469732
-0.017687423 -0.032337766 -0.11015421 -0.013290562 0.039611492 0.06914156 -0.15976015 -0.0047466946
-0.051132057 0.11914753 -0.08025578 -0.15536591 -0.029568095 0.12046269 0.013037515 0.005889155
00000000: 57bb 8d3d c62f fbbd 2b97 bebc aeed 833d
00000010: 8242 573e dc0a dfbd a688 bd3d 0c9d 0d3e
00000020: 1bbd 3ebd bec8 18be b5e8 953c a6c1 123e
00000030: 071d c73d cad9 ae3d bd54 ef3d 3cb7 d4bd
00000040: 1ffe d7bd 92b0 08bb 176d 40bd 4f4c 873d
00000050: 9200 b63d efdb cfbd cd5f 72bc c82a 033e
00000060: b708 5cbc 027c 65bd 0d0a 1c3e 373e 2a3e
00000070: 86c9 ccbd 3839 b03c 2eea b43c 22fe b4bc
00000080: 904a 773d c8af 163e c530 f03a 757c 383d
00000090: 5859 283e fb9a 25bd cd98 89bd 9b2f 213b
000000a0: 0328 b7bd b7e2 41be 6522 fe3d 3ef2 35be
000000b0: 5c29 c63c 2827 bcbc 0a9f 4fbd f2db 193d
000000c0: 5e9f 40bd dfb8 81bc 023d 97bd 5e24 113e
000000d0: 453b b93d 9589 b73d b6c0 743d 6df5 01be
000000e0: 2c3b 26bd a02d ec3d c890 783d a8d1 3b3e
000000f0: a135 8c3d 0c1b 123e 5763 2fbe 8580 05be
00000100: 1846 3cbe 7ca8 cebd e2bd 8c3a bd20 aebd
00000110: 8148 8f3d 8b98 0dbe fd5f 0d3e 3729 24bd
00000120: 91c2 b83d d1d0 33be 9e6c b43d ef16 d43d
00000130: 5fc0 1c3e b140 4e3d 03cf 8fbc 8860 3ebc
00000140: 66c0 613c ba28 56bd a175 4abd c4c9 0fbc
00000150: afba b6bc 7556 6b3c 2274 61bd 3038 b4bd
00000160: 2cbf 0b3e 4f69 2dbe 31dc 223e bf96 f0bd
00000170: d569 953d 1d08 b1bd 8b86 6d3d eae4 1ebe
00000180: ca37 493d d65b 37bd bb04 20bd 72f3 26bc
00000190: d249 41bd 0466 28bd c722 e33d 2912 603d
000001a0: dec7 3ebe f9b5 05be 1dbc bdbd 6f26 ddbd
000001b0: 915b eebd 7e9a b73d 60e2 18bd dfce 2bbe
000001c0: 834d e2bd cbba 97bd 2047 243e d309 cf3d
000001d0: 67f3 963d dd3e d3bd cd8d 063e 87ec c03d
000001e0: 9c89 de3d 67b3 9fbd fcd4 16bd cbdf dbbd
000001f0: 94e7 1dbe 339b 163e adcf 7aba d475 51bd
00000200: 1b5f 01be b9be 62bd fe13 d13d ce63 013e
00000210: 1215 5f3d f881 fe3d ac4a 6cbd 02c5 9d3d
00000220: b841 12be e060 273e 7ea3 1abe c325 18be
00000230: 972d 8a3c 1acb e5bc 2875 953d d991 7f3d
00000240: a068 423e b3b9 0ebe 99cd b6bd ceb8 02be
00000250: 7753 313d 220b 0a3d 3d68 23be 433e 8a3c
00000260: 8ac0 89bc cf6c 42bd 5775 2b3e cfa4 22bd
00000270: be7f f9bd 1b54 c9bc 4f0e 8c3d 68cf afbd
00000280: 82d7 003e 00c6 7fbd 41da e9bc 674a 113e
00000290: 910a 84bd 77c7 a73d 119d cc3d 7376 3abd
000002a0: f984 dcbd 209f 083d a4b2 193e 6257 0bbe
000002b0: ba36 f7bd 9770 403e 42ca d9bd 94d9 35be
000002c0: d9a2 21be 2ad5 c03b 34db e53d 8899 303e
000002d0: 3e10 1bbe e996 6d3d c249 de3d 1396 a33d
000002e0: 3a4a abbd 59ce 07bd 2ce6 d5bd 8114 b7bd
000002f0: e81e ffbd cad1 f4bd 5549 8c3d f435 84bd
00000300: f3fb 23be 09f4 d1bd b8c0 3b3d 9e67 b4bd
00000310: f09b 9bbd 5678 adbb 740e b3bd 3555 313c
00000320: a586 7abd 0b98 0c3e 4f35 d7bd b1af 793d
00000330: b676 2abd bce3 5c3d ffd6 363e 56b8 223e
00000340: 29ec bbbd 6a26 513d bcdd 633d 2a32 05be
00000350: 770a 0b3e 5d80 1e3c a201 de3d 9e56 a8bd
00000360: e309 923d 6827 a2bd e96d 16be 90c4 96bd
00000370: 406d 283d e3f3 193d 15b1 3fbe 5610 b73d
00000380: 3f16 bbbd 0da3 64bd be1b 643e cbc9 f4bd
00000390: d376 29bd 314e cc3d a166 70bd b46c e1bd
000003a0: 7af0 933d df78 b93d 706b b03d 52c7 823d
000003b0: c323 4d3e 26da 2f3d 2dc9 2e3d 8326 06bb
000003c0: 37e5 90bc 9b74 04bd 8898 e1bd a8c0 59bc
000003d0: a93f 223d 179a 8d3d 2a98 23be 298a 9bbb
000003e0: d96f 51bd 9f03 f43d 245d a4bd 3e18 1fbe
000003f0: ca38 f2bc 25b5 f63d 4d9b 553c d0f9 c03b

lstm.weight_hh_l0 f4 [160, 40]
-0.0075792256 -0.0072013657 -0.068341985 -0.1598199 0.22585467 -0.06377819 0.12943482 0.042184144
0.09617697 -0.13411082 0.022237562 -0.08012746 0.08206457 -0.015565328 -0.069440834 -0.011797023
-0.15218797 -0.041459937 0.011363944 0.1572939 -0.10683934 0.0067309197 -0.099272534 0.09503299
0.10750743 0.015857695 0.01793467 -0.032195136 -0.05399623 0.012757989 -0.15865663 0.11237717
-0.03284941 -0.1789998 -0.15502772 -0.24788266 0.041364662 -0.12703252 -0.08305127 0.05005273
-0.062315386 0.015108547 -0.15889992 0.14584014 0.018216351 0.15939607 0.15267652 0.01505381
0.20257446 0.13029344 0.19960183 0.10692395 0.066587806 -0.1320393 0.021111429 -0.03400489
0.047968265 -0.11924325 0.03942343 -0.03828954 -0.06370339 -0.02215079 -0.109327696 0.07817603
-0.06656602 0.12663157 -0.113264576 -0.07297569 -0.122361176 0.084887326 0.0808486 -0.09464428
-0.0137543585 -0.09527136 0.08800562 -0.16642271 0.062199894 0.07845105 -0.06821949 -0.087281965
0.16041045 0.105894044 0.081402056 0.02422873 0.20397191 -0.012357416 0.0910023 0.00048099458
0.17943074 0.10876974 0.10545665 0.15238822 -0.16244587 0.14312974 0.0071434523 0.05075976
0.07781961 -0.034059208 0.13868698 0.11867189 -0.11239604 -0.13871482 0.14928101 -0.11143288
-0.1043295 -0.19056083 0.106214784 -0.0066827806 0.09864373 -0.13733405 0.120281525 0.04477608
0.08068226 -0.049020436 0.038486205 -0.15491267 -0.08792646 -0.047961567 -0.0049493955 -0.041809354
0.07203407 0.03414929 -0.15991193 -0.25459206 0.086329676 0.09472048 0.15491618 -0.061953783
-0.04584147 0.08270177 0.02481166 0.015306566 0.1628257 0.028411703 0.1195589 0.06293504
-0.062104076 -0.05037983 -0.03877735 -0.043800954 0.16387385 0.011415258 -0.15548965 0.0020334593
-0.013843859 0.12569758 -0.2273942 0.06803208 -0.029068543 -0.18913595 -0.014456558 8.6694316e-05
0.024889024 -0.20686257 -0.06980792 -0.13303779 0.06607528 -0.024414465 0.06910942 -0.014330886
-0.04982399 -0.10865178 0.11195603 0.046185702 0.1145233 0.03642675 0.13171472 0.0837219
-0.018876499 -0.025054395 0.02443394 -0.1308574 0.08370607 -0.051794752 -0.0105121555 0.043816388
-0.1008704 0.11626853 0.07414146 0.130946 0.065305494 0.009702777 -0.009028597 0.091775134
-0.105353944 0.097716145 -0.046239696 0.03396624 -0.06865877 -0.0067402544 -0.09085715 0.0067986352
-0.082543395 -0.16481727 -0.13462374 -0.113996156 0.09953625 0.02192922 -0.06547421 0.15180945
-0.030079944 0.0796733 0.1608536 0.04556787 -0.17554012 -0.1340016 -0.052884694 -0.019858098
-0.028348196 0.12024318 -0.10021839 -0.13406862 -0.11282502 0.08512661 0.15403786 -0.07758104
0.023758825 -0.1428427 -0.090264425 -0.08716665 0.04207009 0.0057658697 0.12607418 0.018081019
-0.027944066 0.13084926 0.037195243 -0.027731868 -0.1271915 0.027213613 -0.077430464 0.060868613
0.15372275 0.04370781 0.08874837 -0.08614854 0.02863503 0.10248793 0.066774026 -0.04873244
0.085078456 0.17148666 -0.04299058 0.092969224 -0.0031578154 0.1486706 -0.041459717 0.106971756
-0.13438022 0.04660454 0.09599022 -0.009550006 -0.15013249 -0.039797973 0.13547456 0.1427529
00000000: 275b f8bb 6ff9 ebbb e2f6 8bbd d4a7 23be
00000010: 7246 673e 249e 82bd 908a 043e 48c9 2c3d
00000020: 6ef8 c43d 5954 09be 8c2b b63c de19 a4bd
00000030: 7811 a83d b805 7fbc ff36 8ebd 4d48 41bc
00000040: 2ad7 1bbe e5d1 29bd d62f 3a3c a711 213e
00000050: 95ce dabd 0c8f dc3b 664f cbbd a8a0 c23d
00000060: db2c dc3d ffe7 813c bbeb 923c 0cdf 03bd
00000070: 272b 5dbd e206 513c e276 22be 0026 e63d
00000080: 1a8d 06bd b94b 37be 96bf 1ebe f4d4 7dbe
00000090: fe6d 293d d014 02be c916 aabd 1704 4d3d
000000a0: 6b3e 7fbd d789 773c a9b6 22be 1e57 153e
000000b0: 753a 953c b938 233e 3c57 1c3e 41a4 763c
000000c0: ae6f 4f3e a56b 053e 6c64 4c3e f2fa da3d
000000d0: 305f 883d 4f35 07be e0f1 ac3c b648 0bbd
000000e0: 5f7a 443d ce35 f4bd 767a 213d 7ed5 1cbd
000000f0: ec76 82bd 9375 b5bc 33e7 dfbd c11a a03d
00000100: c453 88bd b5ab 013e 42f7 e7bd 4774 95bd
00000110: 7f98 fabd 68d9 ad3d f393 a53d dcd4 c1bd
00000120: f659 61bc a11d c3bd 4a3c b43d b76a 2abe
00000130: 51c5 7e3d f2aa a03d a9b6 8bbd e3c0 b2bd
00000140: a342 243e fade d83d 1fb6 a63d 547b c63c
00000150: 03de 503e c276 4abc 6a5f ba3d 002e fc39
00000160: b1bc 373e abc2 de3d a8f9 d73d a80b 1c3e
00000170: 3658 26be 9a90 123e 9f13 ea3b 77e9 4f3d
00000180: e35f 9f3d ab81 0bbd f603 0e3e 3f0a f33d
00000190: e52f e6bd 420b 0ebe 1fdd 183e ec36 e4bd
000001a0: b4aa d5bd 6122 43be 2387 d93d 3afb dabb
000001b0: b905 ca3d 4ca1 0cbe 2956 f63d 1f67 373d
000001c0: be3c a53d a7c9 48bd b6a3 1d3d 6da1 1ebe
000001d0: ca12 b4bd 5973 44bd 8a2e a2bb 4940 2bbd
000001e0: 9986 933d 20e0 0b3d f4bf 23be e459 82be
000001f0: 9dcd b03d d0fc c13d 59a2 1e3e 40c3 7dbd
00000200: 44c4 3bbd 8c5f a93d d341 cb3c 64c8 7a3c
00000210: c8bb 263e a9bf e83c 4cdb f43d 16e4 803d
00000220: d860 7ebd 155b 4ebd 00d5 1ebd a168 33bd
00000230: 8cce 273e 1007 3b3c ae38 1fbe c943 053b
00000240: 5ad1 62bc deb6 003e 06da 68be 6754 8b3d
00000250: 2721 eebc dbac 41be 33db 6cbc a8cf b538
00000260: 11e4 cb3c c8d3 53be 74f7 8ebd 0f3b 08be
00000270: 7a52 873d d800 c8bc 3d89 8d3d 18cc 6abc
00000280: 3d14 4cbd d384 debd 3449 e53d 382d 3d3d
00000290: 318b ea3d 3734 153d 39e0 063e 6376 ab3d
000002a0: e3a2 9abc e03e cdbc b029 c83c 7bff 05be
000002b0: 176e ab3d bc26 54bd 2d3b 2cbc d078 333d
000002c0: 2495 cebd 321e ee3d 7ad7 973d b516 063e
000002d0: e3be 853d 65f8 1e3c aeec 13bc 9af4 bb3d
000002e0: cfc3 d7bd 671f c83d d665 3dbd 2f20 0b3d
000002f0: f89c 8cbd 5add dcbb 5013 babd 16c7 de3b
00000300: 830c a9bd dcc5 28be ceda 09be d176 e9bd
00000310: a9d9 cb3d e8a4 b33c 5817 86bd f073 1b3e
00000320: 376a f6bc c12b a33d ceb6 243e 60a5 3a3d
00000330: cac0 33be b737 09be 9f9d 58bd 73ad a2bc
00000340: 7a3a e8bc 0e42 f63d 4d3f cdbd 4949 09be
00000350: ce10 e7bd dc56 ae3d 1abc 1d3e cfe2 9ebd
00000360: dea1 c23c 5b45 12be 8edc b8bd 6e84 b2bd
00000370: b051 2c3d 9fef bc3b 9719 013e a51e 943c
00000380: f4ea e4bc 59fd 053e 0a5a 183d f12d e3bc
00000390: 7d3e 02be 15ef de3c dd93 9ebd 5e51 793d
000003a0: 7f69 1d3e f606 333d b5c1 b53d a56e b0bd
000003b0: 0394 ea3c 31e5 d13d d2c0 883d ab9b 47bd
000003c0: 9d3d ae3d 339a 2f3e e416 30bd a666 be3d
000003d0: 5af3 4ebb 1b3d 183e aad1 29bd 0214 db3d
000003e0: f89a 09be 67e4 3e3d 8596 c43d a177 1cbc
000003f0: 55bc 19be 3303 23bd d8b9 0a3e d12d 123e

lstm.bias_ih_l0 f4 [160]
-0.0076147043 0.16025594 -0.021367986 0.018728992 -0.115355104 -0.113734305 0.031676657 0.15296414
-0.027378675 -0.133447 0.022331601 0.1221776 -0.1306616 0.064172 0.045175217 -0.05085175
-0.078329235 0.20866325 0.009193534 0.10725649 0.15831633 0.1459419 0.17857118 0.048397757
0.0009838342 -0.1602605 0.00904514 -0.12116434 0.0022556856 0.18020923 -0.0068854475 -0.16103913
-0.09578638 0.10640642 -0.0537751 0.14311735 0.14903986 0.061018176 0.10000999 0.13048388
0.13376705 0.108942315 0.16935849 -0.08928595 0.095380396 -0.11050156 -0.17215212 0.057894208
-0.027958464 0.10887463 -0.15042564 -0.053930324 -0.04861352 -0.11102369 -0.039611455 -0.0038811825
-0.007874318 -0.07667927 -0.024165843 0.08560268 -0.10664687 -0.00013384566 0.13505329 0.18312258
0.035301935 -0.061800897 0.12007677 0.11008261 -0.07874356 0.16624932 -0.08635167 0.07327849
0.082619816 0.09652479 0.030166673 0.13129729 0.03565603 -0.056495093 0.12714025 -0.119011596
0.11115486 -0.15160845 -0.048612677 0.013556108 0.11976846 0.025045566 -0.075046256 -0.05569276
0.089555055 0.1781422 0.01831404 0.09632546 -0.1375306 0.13124171 0.09701949 -0.15864944
-0.14961784 0.07521954 -0.14704216 -0.11375216 0.031839482 0.06385659 -0.004214463 0.15981093
0.10138466 0.13680544 -0.03732645 0.1307562 -0.066237055 -0.14711232 0.010884745 -0.10094343
-0.08654353 0.052317083 -0.14333943 -0.031773504 -0.1610573 -0.0062462953 -0.0049173874 0.11234548
-0.004607966 0.011821158 0.052902136 0.07221422 -0.06653492 0.032118175 -0.10738256 -0.09664864
-0.008463974 -0.08399941 -0.13584477 -0.07279578 0.10863597 0.03586638 -0.095032535 0.06683015
0.05525128 -0.023850461 0.08882949 -0.1471468 -0.033930458 -0.00037866246 0.02802747 0.10484339
0.10183854 0.017801734 0.03196008 0.07892651 -0.08764946 -0.035983674 -0.025729125 0.11699533
-0.019968085 -0.013175484 0.07188659 -0.038184684 0.10650424 0.037765946 -0.14389855 -0.006504659
00000000: c584 f9bb 221a 243e ea0b afbc 8b6d 993c
00000010: 4c3f ecbd 88ed e8bd 62bf 013d a2a2 1c3e
00000020: 3e49 e0bc 55a6 08be c3f0 b63c 4038 fa3d
00000030: 28cc 05be 9c6c 833d a609 393d ed49 50bd
00000040: 146b a0bd d2ab 553e 7aa0 163c 4aa9 db3d
00000050: ad1d 223e cb71 153e 5ddb 363e ba3c 463d
00000060: fff3 803a 541b 24be 1132 143c 0225 f8bd
00000070: 20d4 133b c588 383e 529f e1bb 71e7 24be
00000080: a62b c4bd 9ceb d93d 4743 5cbd 5b8d 123e
00000090: e89d 183e 32ee 793d 0ad2 cc3d 919d 053e
000000a0: 3bfa 083e 261d df3d 506c 2d3e 8ddb b6bd
000000b0: cc56 c33d a44e e2bd a548 30be 7a22 6d3d
000000c0: 2609 e5bc a9f9 de3d 2e09 1abe 0be6 5cbd
000000d0: f81e 47bd 6360 e3bd 9f3f 22bd 705b 7ebb
000000e0: 4903 01bc 050a 9dbd 72f7 c5bc 7550 af3d
000000f0: ad69 dabd ec58 0cb9 694b 0a3e 7c84 3b3e
00000100: c398 103d f022 7dbd cfea f53d fe72 e13d
00000110: 4e44 a1bd 433d 2a3e 25d9 b0bd 0813 963d
00000120: 9434 a93d caae c53d 1920 f73c cc72 063e
00000130: 0f0c 123d 6667 67bd 0e31 023e 5abc f3bd
00000140: 29a5 e33d 3f3f 1bbe 161e 47bd 701a 5e3c
00000150: 2b49 f53d 5c2c cd3c dab1 99bd 171e 64bd
00000160: a468 b73d e96a 363e 5307 963c 4846 c53d
00000170: d2d4 0cbe 3a64 063e 28b2 c63d 0075 22be
00000180: 6b35 19be b40c 9a3d 3892 16be e4f6 e8bd
00000190: 1e6a 023d 3ec7 823d 7a19 8abb 7aa5 233e
000001a0: c3a2 cf3d ba16 0c3e 9fe3 18bd f4e4 053e
000001b0: 4ba7 87bd 9da4 16be ee55 323c 6ebb cebd
000001c0: bc3d b1bd 704a 563d 92c7 12be ef24 02bd
000001d0: 34ec 24be b9ad ccbb 0922 a1bb 6315 e63d
000001e0: 6cfe 96bb 88ad 413c e9af 583d 0de5 933d
000001f0: 7643 88bd 598e 033d 63eb dbbd b9ef c5bd
00000200: 7bac 0abc e207 acbd e41a 0bbe f415 95bd
00000210: 897c de3d a0e8 123d 6ba0 c2bd 3fde 883d
00000220: 2b4f 623d 0b62 c3bc 3cec b53d a7ad 16be
00000230: aafa 0abd 3787 c6b9 dd99 e53c 22b8 d63d
00000240: b990 d03d f1d4 913c 93e8 023d 39a4 a13d
00000250: 8f81 b3bd 9e63 13bd e3c5 d2bc 3f9b ef3d
00000260: 1c94 a3bc fcdd 57bc 4739 933d 8b67 1cbd
00000270: e51e da3d 77b0 1a3d 245a 13be 0925 d5bb

lstm.bias_hh_l0 f4 [160]
0.08653312 -0.05552234 0.073194854 0.17901948 0.121562526 -0.10548447 -0.15819217 0.019938443
0.04138155 -0.06251957 0.07068986 0.114842445 -0.027722102 0.16193141 -0.052658934 -0.07817013
0.024951262 0.17766254 0.23276429 -0.10286738 -0.009555517 0.1733935 -0.10763641 0.113853306
0.15948683 0.05562566 0.1330932 -0.029772855 0.12810071 0.04555156 -0.04170484 -0.029555753
-0.0017486016 0.033860065 0.14794154 0.043120693 0.08562769 0.061080538 0.08961144 -0.058948897
0.061190378 0.058424197 0.03218502 -0.07116675 -0.022324102 -0.033949517 -0.1727637 -0.01765336
0.12557597 0.10728025 0.12846626 -0.12006932 -0.12320528 -0.07533871 0.02272318 0.091408245
-0.11350137 0.09960752 0.106488384 0.114680566 0.0011337171 -0.04448049 -0.069804214 -0.010725512
-0.06469037 0.046956092 -0.13762149 -0.08949335 -0.13307697 0.13211918 0.14421906 0.118181944
-0.014563677 -0.04457296 0.009380723 -0.057434577 -0.019236948 0.13236238 -0.06564185 0.119119085
-0.0312017 -0.03777817 0.0103416 -0.022164218 0.12958841 0.025779214 0.117189094 0.14517406
0.03418298 0.08355507 0.10358721 0.12540969 -0.015003492 0.022928651 -0.010093784 0.0773103
0.05765077 0.09774718 0.1250047 0.15919651 -0.11755355 -0.13765682 -0.09825066 -0.05298133
-0.07824678 0.07400287 -0.13344103 0.0018010049 -0.009939641 0.00070525205 0.06002027 -0.028814586
0.0633434 -0.12880759 -0.14759265 -0.10455543 -0.08130981 0.075640574 -0.056602836 0.10490995
0.085380554 0.13097672 0.004238057 0.012903306 0.06650105 0.033226546 0.11577482 0.09238537
0.047490418 0.07643266 -0.05119475 0.046648733 -0.09022712 -0.025271747 -0.087091334 -0.050216764
0.018271446 0.044289768 0.008553765 -0.04145177 0.102509044 -0.06527311 0.1967299 0.19373335
0.035804566 -0.17240207 -0.07066321 0.020036979 0.10472883 -0.068411805 0.14843503 0.07233357
0.13014099 0.12014084 -0.0076302756 -0.1314598 0.19958846 -0.1114918 -0.14945638 -0.052461818
00000000: 4738 b13d 656b 63bd 2fe7 953d e250 373e
00000010: c6f5 f83d 3e08 d8bd 21fd 21be f255 a33c
00000020: b37f 293d 430a 80bd d8c5 903d 8432 eb3d
00000030: 7619 e3bc 59d1 253e e5b0 57bd a917 a0bd
00000040: 9766 cc3c 2bed 353e c359 6e3e 22ac d2bd
00000050: be8e 1cbc 118e 313e 7a70 dcbd ec2b e93d
00000060: 8450 233e bbd7 633d 9549 083e 34e6 f3bc
00000070: d52c 033e 4694 3a3d b2d2 2abd e81e f2bc
00000080: 5531 e5ba dab0 0a3d fd7d 173e 539f 303d
00000090: 925d af3d 962f 7a3d 3486 b73d 6674 71bd
000000a0: c3a2 7a3d 364e 6f3d 71d4 033d dfbf 91bd
000000b0: 09e1 b6bc a60e 0bbd f8e8 30be c79d 90bc
000000c0: fd96 003e bfb5 db3d a98c 033e e7e6 f5bd
000000d0: 0d53 fcbd 2e4b 9abd f625 ba3c 3f34 bb3d
000000e0: 6873 e8bd 07ff cb3d 9516 da3d a5dd ea3d
000000f0: 3c99 943a 2d31 36bd 83f5 8ebd 0fba 2fbc
00000100: 627c 84bd 0855 403d a6ec 0cbe 4a48 b7bd
00000110: 5445 08be 404a 073e 29ae 133e 6009 f23d
00000120: 7d9c 6ebc 2392 36bd 9bb1 193c 8540 6bbd
00000130: ce96 9dbc 018a 073e 3c6f 86bd b5f4 f33d
00000140: b59a ffbc 48bd 1abd d06f 293c bc91 b5bc
00000150: d3b2 043e ee2e d33c d600 f03d 82a8 143e
00000160: 7403 0c3d ec1e ab3d 8825 d43d 666b 003e
00000170: 35d1 75bc ded4 bb3c 6660 25bc dd54 9e3d
00000180: 3723 6c3d ac2f c83d 3b01 003e 6904 233e
00000190: eabf f0bd e9f5 0cbe a437 c9bd f302 59bd
000001a0: d93f a0bd d18e 973d c4a4 08be b20f ec3a
000001b0: e0d9 22bc aae0 383a d1d7 753d 910c ecbc
000001c0: 2fba 813d 23e6 03be 8722 17be 2821 d6bd
000001d0: c285 a6bd 72e9 9a3d 60d8 67bd 07db d63d
000001e0: 00dc ae3d c31e 063e 66df 8a3b 6368 533c
000001f0: b431 883d 8f18 083d 591b ed3d 8a34 bd3d
00000200: 5085 423d ba88 9c3d 96b1 51bd be12 3f3d
00000210: ffc8 b8bd b206 cfbc f15c b2bd 18b0 4dbd
00000220: 00ae 953c 3069 353d 1725 0c3c 55c9 29bd
00000230: 43f0 d13d e9ad 85bd 9073 493e 0962 463e
00000240: cfa7 123d 2b8a 30be dfb7 90bd 9724 a43c
00000250: 127c d63d 7d1b 8cbd 5aff 173e 9f23 943d
00000260: ae43 053e 670c f63d 6407 fabb 669d 06be
00000270: eb60 4c3e d055 e4bd 180b 19be 34e2 56bd

lstm.weight_ih_l0_reverse f4 [160, 20]
-0.087299004 0.03436802 0.028342346 -0.06683207 0.02941867 -0.13822813 0.0930941 -0.0058387066
-0.1136602 0.008606754 0.05105376 0.12117925 -0.006998241 -0.116864555 0.11848071 0.17201273
-0.00901555 -0.0773926 -0.13531671 0.047027513 0.046738014 0.032110713 -0.1360899 -0.13797285
0.22428502 0.09358814 -0.055356786 0.113078296 0.038325887 -0.120687485 0.17842685 -0.098508984
0.09667374 0.12812638 -0.17002247 0.07052286 0.020104684 0.078833625 0.177011 -0.05775709
0.00391777 -0.0981872 0.06809725 -0.091005564 0.017832948 -0.012803179 -0.06338394 -0.04840177
-0.047151435 -0.013413598 0.058533013 -0.05621405 -0.09359889 0.15320812 -0.15370986 0.005770498
-0.045949686 0.04544797 0.12068923 0.024424814 -0.089163594 0.14928398 0.09443964 0.08484047
-0.019609405 -0.013798175 0.029597908 0.054963246 0.054247767 -0.08457066 0.048374373 -0.109871864
0.07664476 0.076356426 -0.09516308 -0.057404377 0.1856274 0.031595055 0.0015202684 -0.07395797
0.091581665 0.14639975 -0.08549244 0.08386543 0.11274127 -0.118600115 -0.059532244 0.118951395
-0.07453861 0.046644494 -0.0064737895 0.00703671 -0.10622262 -0.0018254238 0.05836333 -0.025225846
-0.0990966 0.035357248 0.075923674 0.13483453 0.1588279 0.016455749 -0.1274491 -0.08874932
0.063394204 -0.089382716 -0.09340247 0.0072320118 0.073648274 -0.026236411 -0.00019902649 0.16982666
-0.09658109 -0.054480527 0.027132178 -0.09935969 0.056448955 -0.07007179 -0.08757546 0.0039144075
-0.018073784 -0.13479528 -0.115048416 0.084863834 0.13628109 -0.040259622 -0.12968048 0.15377949
0.109357394 0.12768956 -0.12241109 -0.051427618 0.16284846 0.11777044 -0.08131839 0.1173692
0.05488869 -0.13100637 -0.12725382 -0.1429895 0.107944265 -0.1560688 0.07002014 0.1204249
0.1762852 0.027889201 -0.114247434 0.21505952 -0.15134782 -0.13446221 0.016966581 -0.0061486736
-0.020619562 0.04331715 0.032952353 -0.1444389 -0.16498834 0.12415977 0.103945516 0.08374449
-0.03791686 -0.1311137 -0.13805708 -0.019729413 -0.021180728 -0.002291854 -0.14573556 0.08745253
0.019815871 -0.1672659 0.09897892 -0.03590703 0.08543377 0.04640785 -0.09267373 -0.09266466
0.08440087 0.10467446 0.024960471 0.1703635 -0.014520127 -0.0033659744 -0.02610649 -0.09842815
-0.025837606 0.06494935 0.11612896 -0.086555 0.126632 0.03679835 0.10480842 -0.14882113
-0.0024111974 -0.07732052 -0.11671277 0.012601176 0.0077864137 0.09121519 -0.15961213 -0.09697052
0.08541657 -0.12044435 -0.026651423 0.103181295 -0.07988052 -0.025802534 -0.15433356 -0.013797843
-0.035759315 0.15057619 -0.20300235 0.016375052 -0.066080116 -0.16953962 -0.013656301 0.050103694
0.061160743 0.082118124 0.013087419 0.03821551 -0.03943763 -0.091349915 0.11254401 0.03262097
-0.08101278 0.00067618914 -0.060077876 -0.120617166 -0.008683209 0.1580073 0.02406224 0.07780773
-0.11394169 0.056388907 0.07595919 0.102092735 -0.15958357 -0.08281123 0.11148596 0.19263822
0.13421823 -0.010311194 0.013345335 0.1255473 0.015688017 -0.014888262 0.17311577 -0.063139446
0.039921697 0.09666519 -0.06348948 -0.15215366 0.004881019 -0.12500419 0.15846692 0.11231607
00000000: d2c9 b2bd 7bc5 0c3d 352e e83c 41df 88bd
00000010: 6cff f03c ad8b 0dbe 1fa8 be3d 9f52 bfbb
00000020: aec6 e8bd 5803 0d3c bf1d 513d d42c f83d
00000030: 8051 e5bb af56 efbd 04a6 f23d 1b24 303e
00000040: f5b5 13bc 0380 9ebd 7790 0abe ec9f 403d
00000050: 5c70 3f3d 8686 033d 275b 0bbe c148 0dbe
00000060: f9aa 653e 24ab bf3d ccbd 62bd 9895 e73d
00000070: 9bfb 1c3d 002b f7bd 87b5 363e 14bf c9bd
00000080: e2fc c53d 9033 033e 5f1a 2ebe 4a6e 903d
00000090: 94b2 a43c 8673 a13d 5f42 353e b392 6cbd
000000a0: a360 803b 5f16 c9bd 9276 8b3d 2061 babd
000000b0: 6716 923c 6dc4 51bc 70cf 81bd ef40 46bd
000000c0: dd21 41bd b5c4 5bbc 50c0 6f3d b440 66bd
000000d0: c6b0 bfbd 97e2 1c3e 1e66 1dbe 7216 bd3b
000000e0: bd35 3cbd a727 3a3d ea2b f73d 8c16 c83c
000000f0: 679b b6bd e6dd 183e 9269 c13d d7c0 ad3d
00000100: e7a3 a0bc be11 62bc 5077 f23c 2421 613d
00000110: e832 5e3d 6233 adbd 3524 463d 8004 e1bd
00000120: eef7 9c3d c260 9c3d dce4 c2bd da20 6bbd
00000130: 1c15 3e3e d169 013d be43 c73a 4777 97bd
00000140: 2b8f bb3d d1e9 153e a916 afbd a3c1 ab3d
00000150: e5e4 e63d 9ee4 f2bd 15d8 73bd ca9c f33d
00000160: b3a7 98bd 4c0e 3f3d 1522 d4bb 3494 e63b
00000170: 3f8b d9bd 0f43 efba 630e 6f3d 6fa6 cebc
00000180: 29f3 cabd c3d2 103d df7d 9b3d 1012 0a3e
00000190: c8a3 223e 35ce 863c 0482 02be 34c2 b5bd
000001a0: d2d4 813d 490e b7bd cb49 bfbd 83fa ec3b
000001b0: e8d4 963d beed d6bc c4b1 50b9 0ae7 2d3e
000001c0: 4ecc c5bd f926 5fbd 4d44 de3c 187d cbbd
000001d0: 0537 673d cc81 8fbd c35a b3bd 6e44 803b
000001e0: 790f 94bc c607 0abe 819e ebbd 17cd ad3d
000001f0: 458d 0b3e 46e7 24bd f6ca 04be 5f78 1d3e
00000200: c5f6 df3d 0dc1 023e aab2 fabd c4a5 52bd
00000210: bfc1 263e a131 f13d 428a a6bd 435f f03d
00000220: f7d2 603d 8926 06be d34e 02be d76b 12be
00000230: e211 dd3d 80d0 1fbe b866 8f3d 54a1 f63d
00000240: 1c84 343e e577 e43c 8ffa e9bd 9038 5c3e
00000250: ecfa 1abe 76b0 09be 80fd 8a3c d07a c9bb
00000260: 5bea a8bc 536d 313d 0cf9 063d cae7 13be
00000270: b4f2 28be 7a47 fe3d 63e1 d43d 3b82 ab3d
00000280: b64e 1bbd ab42 06be d65e 0dbe 949f a1bc
00000290: 3583 adbc ee32 16bb b43b 15be 501a b33d
000002a0: e554 a23c c147 2bbe 76b5 ca3d 4013 13bd
000002b0: e7f7 ae3d 2816 3e3d b9cb bdbd f8c6 bdbd
000002c0: 5dda ac3d 905f d63d e779 cc3c c573 2e3e
000002d0: d4e5 6dbc ae97 5cbb 47dd d5bc b394 c9bd
000002e0: 63a9 d3bc 2a04 853d 05d5 ed3d bf43 b1bd
000002f0: d2ab 013e deb9 163d cca5 d63d 9164 18be
00000300: 2e05 1ebb 395a 9ebd 1b07 efbd 2a75 4e3c
00000310: 2c25 ff3b 08cf ba3d 5d71 23be 7b98 c6bd
00000320: e2ee ae3d 87ab f6bd 1654 dabc b750 d33d
00000330: 6698 a3bd d65f d3bc 9e09 1ebe 5910 62bc
00000340: 5c78 12bd a530 1a3e d9df 4fbe f924 863c
00000350: 0355 87bd cb9b 2dbe aebe 5fbc 8839 4d3d
00000360: b083 7a3d 8c2d a83d 9d6c 563c de87 1c3d
00000370: 5a89 21bd aa15 bbbd 797d e63d 919d 053d
00000380: 07ea a5bd 4942 313a 3814 76bd 2206 f7bd
00000390: 0544 0ebc aacc 213e 2d1e c53c a959 9f3d
000003a0: 435a e9bd 0ef8 663d 7e90 9b3d ff15 d13d
000003b0: e069 23be ef98 a9bd c052 e43d f442 453e
000003c0: 8170 093e 48f0 28bc 64a6 5a3c 798f 003e
000003d0: 2884 803c e6ed 73bc 4345 313e 414f 81bd
000003e0: ef84 233d 66f8 c53d c606 82bd 2bce 1bbe
000003f0: f4f0 9f3b 1901 00be 2745 223e f805 e63d

lstm.weight_hh_l0_reverse f4 [160, 40]
0.14175177 0.12034395 0.016385427 0.060875952 -0.026896205 -0.11738712 -0.023896541 0.029333489
0.15648262 0.059743967 -0.0316081 0.0037078585 -0.050307937 -0.12278643 0.014487097 -0.0017009813
0.17706035 0.010513125 0.09524448 0.02463702 -0.0098548345 0.10723241 -0.14577815 -0.0411194
0.12444471 0.18266094 -0.023573898 -0.010423478 0.098727964 -0.033053696 0.008804649 -0.17373064
0.07758973 0.077578 -0.063909546 0.058211952 -0.04576389 -0.08356586 -0.062300954 0.12391441
0.098659955 0.050996196 -0.064795524 -0.07110063 -0.121840686 -0.139965 0.06624747 0.0021237417
-0.06844849 0.17703146 0.052842185 0.08628798 0.060730264 0.0067201345 -0.09567955 -0.071904376
0.13373175 -0.02610593 0.050636996 0.0056575974 -0.092933305 -0.10630322 -0.075261235 0.05614635
-0.0009954984 0.11620548 0.0015062223 0.051118422 0.11663268 0.12516975 -0.08856568 0.0882089
0.13500829 0.19448446 0.07048887 -0.13716352 -0.093903095 0.044525027 0.052812018 -0.0042006406
0.0045118546 -0.037128992 0.033745054 -0.097457424 0.12938467 0.084891215 -0.06158774 -0.2108509
-0.1358741 -0.08395697 0.20080721 0.13329327 -0.07558221 0.07995901 0.015480263 0.18540488
-0.063945875 -0.07891059 -0.038382933 -0.006502213 0.17326614 -0.03688142 -0.025780462 -0.13133994
0.040334564 0.118343025 0.082139306 -0.1511026 -0.002901658 0.13287787 -0.08716046 -0.14676873
0.07202442 0.05193091 -0.073111504 0.04771865 0.035147794 0.0036341064 -0.10755849 -0.016201975
0.04517793 0.07288023 -0.17656752 -0.15229972 0.13000183 0.11263496 -0.02188846 -0.05470386
0.035625495 0.047704015 -0.008898377 0.01276369 0.04808809 -0.10898385 0.10666893 0.11839795
0.007992765 0.091568395 -0.064518444 0.13153471 -0.024220355 -0.073720664 -0.10685213 -0.10817908
0.054650154 0.054213874 0.17221907 -0.077524886 -0.034346387 -0.14257 -0.035629056 0.02106642
0.0653193 -0.025787218 -0.15298234 0.039344177 0.021109216 0.067717016 -0.046698015 0.031771306
-0.06701548 0.06814066 0.042119157 -0.030998075 -0.03120998 -0.12456224 -0.1340416 -0.035007928
-0.15422742 0.023417262 0.1378098 0.17735639 0.06943132 -0.06535005 0.12225438 0.07892372
0.03769418 0.1287606 0.0017928779 0.014676906 0.10526964 -0.109524705 0.02564326 0.13646063
-0.15948844 -0.089436874 -0.04554976 0.010665298 -0.002405685 -0.014280237 0.06739852 0.117057726
-0.06341602 0.058937058 0.12921704 -0.013989623 -0.012152213 0.14721869 0.121424854 -0.097053066
0.05639804 0.038544733 -0.18118598 -0.14724027 0.1281189 0.07761978 0.088102676 -0.068884596
-0.09478784 -0.07311543 -0.020834403 -0.012989224 -0.052924227 0.0871902 -0.14659132 0.06858167
-0.06755896 0.092923954 0.15829994 0.13778597 0.02252134 -0.017095843 0.01492815 -0.069911085
-0.04118683 0.0040662247 -0.05958114 -0.10415422 0.17158674 0.030107802 0.0106082745 0.11727965
-0.038129795 -0.012538091 -0.12839444 0.0044858987 -0.055088207 0.10931711 0.1568592 -0.0011414504
0.084511474 -0.013190981 -0.10779963 0.13574818 0.14055876 -0.025766738 -0.00473377 0.12964264
0.1081356 0.14884384 0.076243944 0.15555188 0.017901814 0.037530262 -0.006343949 0.05853917
00000000: 6027 113e e476 f63d bb3a 863c 1059 793d
00000010: 6e55 dcbc a968 f0bd aec2 c3bc c94c f03c
00000020: fb3c 203e 17b6 743d 7f77 01bd 8bff 723b
00000030: b20f 4ebd 7477 fbbd 4a5b 6d3c 76f3 deba
00000040: 4f4f 353e 3e3f 2c3c 8a0f c33d 93d3 c93c
00000050: 2c76 21bc aa9c db3d de46 15be d16c 28bd
00000060: dedc fe3d 780b 3b3e 0c1e c1bc 3cc7 2abc
00000070: e331 ca3d 5063 07bd 6041 103c 72e6 31be
00000080: 5de7 9e3d 37e1 9e3d 02e3 82bd a86f 6e3d
00000090: eb72 3bbd 9424 abbd 492f 7fbd d7c6 fd3d
000000a0: 3b0e ca3d 63e1 503d 84b3 84bd 359d 91bd
000000b0: 9c87 f9bd fc52 0fbe c1ac 873d 792e 0b3b
000000c0: b92e 8cbd bc47 353e 0c71 583d c1b7 b03d
000000d0: 4cc0 783d 9334 dc3b a4f3 c3bd 9a42 93bd
000000e0: faf0 083e 1adc d5bc bd68 4f3d 5e63 b93b
000000f0: d153 bebd 81b5 d9bd 9022 9abd b7f9 653d
00000100: 627b 82ba 24fd ed3d 6f6c c53a 8d61 513d
00000110: 1ddd ee3d 802c 003e ec61 b5bd dea6 b43d
00000120: 9d3f 0a3e ef26 473e 785c 903d 9874 0cbe
00000130: 4450 c0bd e05f 363d 6a51 583d 87a5 89bb
00000140: 2ed8 933b 9214 18bd 4138 0a3d c297 c7bd
00000150: 6a7d 043e 72db ad3d 6d43 7cbd 4ce9 57be
00000160: 9422 0bbe a2f1 abbd 68a0 4d3e 087e 083e
00000170: d9ca 9abd 8dc1 a33d eea0 7d3c c7da 3d3e
00000180: 0ef6 82bd e09b a1bd 6c37 1dbd 8410 d5bb
00000190: ae6c 313e f910 17bd 8c31 d3bc fa7d 06be
000001a0: db35 253d d45d f23d a738 a83d a4ba 1abe
000001b0: be29 3ebb 2311 083e 2f81 b2bd 8b4a 16be
000001c0: 8a81 933d 82b5 543d 7cbb 95bd a274 433d
000001d0: 22f7 0f3d 302a 6e3b a047 dcbd 01ba 84bc
000001e0: 7e0c 393d 3b42 953d 1ece 34be 75f4 1bbe
000001f0: 331f 053e 28ad e63d 6d4f b3bc 2811 60bd
00000200: 0aec 113d 4965 433d 80ca 11bc cc1e 513c
00000210: 04f8 443d ed32 dfbd 3d75 da3d a07a f23d
00000220: 16f4 023c 3688 bb3d 3f22 84bd 09b1 063e
00000230: c469 c6bc dcfa 96bd 4ad5 dabd fe8c ddbd
00000240: d7d8 5f3d 5e0f 5e3d 325a 303e 5ec5 9ebd
00000250: ccae 0cbd dffd 11be c6ef 11bd 7c93 ac3c
00000260: 20c6 853d b73f d3bc 67a7 1cbe 5c27 213d
00000270: 3ced ac3c 38af 8a3d 6b46 3fbd a122 023d
00000280: 693f 89bd 558d 8b3d 2385 2c3d adef fdbc
00000290: 12ac ffbc 7d1a ffbd 3442 09be 7964 0fbd
000002a0: cbed 1dbe 8fd5 bf3c 031e 0d3e ea9c 353e
000002b0: 0232 8e3d 3fd6 85bd 8160 fa3d c2a2 a13d
000002c0: 3665 1a3d d2d9 033e 00ff ea3a 6877 703c
000002d0: 9c97 d73d 7d4e e0bd d011 d23c 56bc 0b3e
000002e0: f050 23be ae2a b7bd 6392 3abd 81bd 2e3c
000002f0: b2a8 1dbb a8f7 69bc 3c08 8a3d f6bb ef3d
00000300: 42e0 81bd fc67 713d 7951 043e bb34 65bc
00000310: 131a 47bc 7fc0 163e 98ad f83d c2c3 c6bd
00000320: a201 673d 15e1 1d3d d188 39be 27c6 16be
00000330: 9a31 033e 1ff7 9e3d 2d6f b43d 5e13 8dbd
00000340: 2120 c2bd 8bbd 95bd e9ac aabc c1d0 54bc
00000350: 13c7 58bd c790 b23d 091c 16be 8c74 8c3d
00000360: 5a5c 8abd ea4e be3d 6119 223e c417 0d3e
00000370: ac7e b83c 950c 8cbc 3395 743c 8b2d 8fbd
00000380: 85b3 28bd f73d 853b 5a0b 74bd cf4e d5bd
00000390: 6fb4 2f3e a3a4 f63c 54ce 2d3c 5030 f03d
000003a0: fd2d 1cbd 916c 4dbc d579 03be 72fe 923b
000003b0: 2ca4 61bd a6e1 df3d b39f 203e b89c 95ba
000003c0: 5a14 ad3d fc1e 58bc 0dc6 dcbd 9201 0b3e
000003d0: a3ee 0f3e c414 d3bc be1d 9bbb 0ac1 043e
000003e0: 3376 dd3d 856a 183e c925 9c3d fe48 1f3e
000003f0: d3a6 923c 55b9 193d e7e0 cfbb c5c6 6f3d

lstm.bias_ih_l0_reverse f4 [160]
0.14605744 0.016237786 0.16831662 -0.10287018 -0.14333868 -0.14973547 -0.08017973 0.17570668
-0.1150664 0.15763293 0.13929017 -0.06885623 0.16489469 -0.076215334 0.16795638 0.07104436
0.015790777 -0.014455164 0.08624645 0.14936031 0.0736473 0.17852499 0.04423171 -0.07520602
0.07627608 0.03773339 0.17344287 0.058255672 -0.010906765 0.06163828 0.11327233 0.08521996
0.15173572 -0.031975437 -0.0651173 -0.030296627 0.18910822 -0.017850364 0.11243622 -0.069418214
0.010657325 -0.10119434 0.083051614 -0.034635752 0.04076802 0.07498246 0.123236805 0.1340438
-0.045640558 -0.10426955 0.20360269 -0.11966276 0.05570852 -0.06434697 -0.02507969 0.06960662
-0.061009064 0.07435479 0.08772466 0.1373908 0.10002846 -0.050907064 -0.08058116 0.09933919
0.09319065 0.11161618 0.032402467 -0.074774735 0.055188816 0.17996323 -0.010183288 0.019922826
0.011811627 -0.13051301 -0.051067244 0.023869319 0.031322952 0.1823721 0.15475568 -0.020506993
-0.0075406334 0.14753842 0.0790588 0.0018677705 0.13542292 -0.0028577643 0.1389963 0.019411873
0.0043176766 0.12611926 0.042076766 0.07251683 -0.104340546 0.18537296 0.056981985 0.15927522
-0.07207569 0.084300146 0.088729054 -0.019297905 0.059323344 -0.045086432 -0.12596932 -0.08136299
0.11652678 0.110298134 0.043105565 -0.11634105 -0.09958446 0.13764904 0.008859898 0.03267859
0.08129612 -0.15875104 -0.051335953 -0.08618078 -0.12426942 -0.078608505 -0.058452852 -0.021469956
0.0006005508 -0.021349164 0.13736658 0.1164913 0.12004797 0.12888032 0.09773636 0.18162826
-0.039511696 -0.14419457 0.028064402 0.14752105 0.035745308 -0.08842864 -0.015596358 -0.057268944
-0.08333437 -0.0032504094 0.100326575 0.10715248 0.07619583 0.20190862 -0.120885134 0.06614612
0.17819664 0.11127063 0.17818101 -0.024755767 -0.0483459 -0.07065903 -0.10996404 -0.055595603
0.08154627 -0.11216701 0.10686734 -0.13527101 -0.07497948 0.1317171 -0.12349402 -0.10401466
00000000: 1590 153e 1b05 853c 315b 2c3e 9aad d2bd
00000010: 60c7 12be 4154 19be 4535 a4bd 74ec 333e
00000020: efa7 ebbd 876a 213e 15a2 0e3e 7f04 8dbd
00000030: 27da 283e c916 9cbd c2fc 2b3e b57f 913d
00000040: a95b 813c 5ad5 6cbc fba1 b03d e9f1 183e
00000050: 65d4 963d 41cf 363e 4f2c 353d 9d05 9abd
00000060: a236 9c3d 548e 1a3d 029b 313e 809d 6e3d
00000070: 4ab2 32bc 6c78 7c3d 53fb e73d cd87 ae3d
00000080: 9c60 1b3e adf8 02bd 385c 85bd a230 f8bc
00000090: 96a5 413e ed3a 92bc f644 e63d 232b 8ebd
000000a0: 109c 2e3c fa3e cfbd f716 aa3d 38de 0dbd
000000b0: 5efc 263d 6790 993d 9463 fc3d c742 093e
000000c0: 98f1 3abd 468b d5bd 397d 503e c011 f5bd
000000d0: 9e2e 643d 58c8 83bd ec73 cdbc ea8d 8e3d
000000e0: a4e4 79bd 5347 983d fda8 b33d 2db0 0c3e
000000f0: b9db cc3d ed83 50bd bc07 a5bd 5872 cb3d
00000100: bdda be3d 0697 e43d 73b8 043d 7f23 99bd
00000110: ab0d 623d 4848 383e ced7 26bc 3235 a33c
00000120: 8e85 413c 34a5 05be e32b 51bd 9789 c33c
00000130: 7f4c 003d c0bf 3a3e 4678 1e3e 48fe a7bc
00000140: 6b17 f7bb 5014 173e 95e9 a13d facf f43a
00000150: 4eac 0a3e 5449 3bbb 0c55 0e3e a605 9f3c
00000160: 4c7b 8d3b 6825 013e b058 2c3d b483 943d
00000170: 7fb0 d5bd 69d2 3d3e f165 693d 0b19 233e
00000180: 6b9c 93bd 8ea5 ac3d 94b7 b53d a416 9ebc
00000190: 09fd 723d 8dac 38bd 1afe 00be a4a1 a6bd
000001a0: 98a5 ee3d fde3 e13d 768f 303d 3744 eebd
000001b0: f0f2 cbbd dff3 0c3e 1b29 113c fcd9 053d
000001c0: 957e a63d a28f 22be a645 52bd 8c7f b0bd
000001d0: f780 febd 7ffd a0bd 426c 6fbd c3e1 afbc
000001e0: 486e 1d3a 71e4 aebc d3a9 0c3e fe92 ee3d
000001f0: b6db f53d 34f9 033e 002a c83d c2fc 393e
00000200: 04d7 21bd bea7 13be 51e7 e53c c20f 173e
00000210: ac69 123d 131a b5bd de87 7fbc d792 6abd
00000220: 36ab aabd d204 55bb 0578 cd3d c272 db3d
00000230: 8f0c 9c3d 22c1 4e3e a092 f7bd 9e77 873d
00000240: 2e79 363e dbe1 e33d 1575 363e 9bcc cabc
00000250: 5a06 46bd aeb5 90bd d434 e1bd 37b8 63bd
00000260: bb01 a73d d1b7 e5bd 44dd da3d 7c84 0abe
00000270: d78e 99bd d9e0 063e 6fea fcbd a305 d5bd

lstm.bias_hh_l0_reverse f4 [160]
0.06276931 0.050023288 0.08930719 -0.046035968 0.06198074 0.12894809 0.113461114 0.12212118
-0.033739816 -0.10669928 0.025296682 0.06662119 0.12112898 0.09551404 -0.08853299 0.04157676
0.070372224 -0.10523996 -0.06937506 0.14928891 -0.13250884 0.17970715 -0.13416097 -0.054288004
0.08188326 0.14877737 0.10618289 -0.05994843 0.09130236 -0.03095043 -0.0116118435 -0.13598685
-0.0918381 0.15514408 0.11384486 -0.055501 0.062687814 0.15537106 -0.12918271 0.04389051
-0.07309901 0.09786457 -0.029070076 -0.02330677 0.17203963 -0.010322477 0.023674546 0.12078864
0.15671356 -0.050735824 0.017998608 0.011742999 -0.006265454 -0.09285632 0.049635835 -0.03727233
0.056313053 0.052423563 0.09158661 -0.006950502 -0.04026117 0.15941063 0.06891863 0.14662266
0.11723434 -0.061049193 0.11826752 0.14636737 0.0014134498 -0.07680407 0.027423115 -0.12630618
0.15584932 -0.12713222 -0.048568066 0.07593659 0.08643722 -0.033520903 0.039890066 0.14473565
0.093982205 -0.094822995 0.04804148 0.029285219 0.15490714 -0.04898131 -0.08214341 -0.14166425
-0.16313188 0.066228665 -0.13002932 0.0066646966 -0.050243177 0.026742112 -0.10004754 0.16685437
0.10748971 0.02272247 0.0046145082 0.005751797 0.11921327 -0.06331045 -0.04874573 -0.019648045
-0.0022413633 0.076972924 -0.0822435 -0.08133445 0.15903208 -0.028797401 -0.06970395 -0.058253247
-0.124485366 -0.042180497 -0.023299942 0.025199765 0.13524078 -0.02888686 0.014279814 0.030817451
-0.11447981 0.04615736 0.059543032 -0.101895414 -0.117085904 0.039832987 -0.041620485 0.11504827
0.0037937625 -0.031849265 -0.051050436 -0.043298475 0.07216313 0.076278456 -0.099602245 -0.062119465
-0.055718224 -0.01195586 0.045471113 0.067675605 -0.0045924955 0.22245279 0.09834103 -0.11804428
-0.0079742 0.124009155 -0.027256202 0.10243181 -0.051894654 0.15113997 0.09703599 0.07806499
0.07237708 0.18202446 0.07646997 0.15951715 0.0193311 0.017534656 -0.028293094 0.11119004
00000000: 328d 803d 38e5 4c3d b0e6 b63d 3690 3cbd
00000010: 84df 7d3d f80a 043e 4d5e e83d ab1a fa3d
00000020: c332 0abd 2785 dabd fd3a cf3c b170 883d
00000030: 7812 f83d dd9c c33d c950 b5bd 654c 2a3d
00000040: 501f 903d 0c88 d7bd 8314 8ebd 31df 183e
00000050: 66b0 07be 2705 383e 7e61 09be 195d 5ebd
00000060: 69b2 a73d 1859 183e 6a76 d93d 7c8c 75bd
00000070: bbfc ba3d c28b fdbc 9a3f 3ebc 2340 0bbe
00000080: 9d15 bcbd 17de 1e3e 7e27 e93d 0455 63bd
00000090: 7862 803d 9719 1f3e 7948 04be 89c6 333d
000000a0: efb4 95bd 386d c83d 5e24 eebc d7ed bebc
000000b0: 282b 303e 9b1f 29bc 1ff1 c13c 0960 f73d
000000c0: 8579 203e 5ed0 4fbd d171 933c b565 403c
000000d0: 704e cdbb 742b bebd f24e 4b3d dfaa 18bd
000000e0: 84a8 663d 17ba 563d c391 bb3d 09c1 e3bb
000000f0: e6e8 24bd 8a3c 233e 3625 8d3d 4024 163e
00000100: 8f18 f03d b80e 7abd 3e36 f23d 54e1 153e
00000110: 8143 b93a 744b 9dbd 71a6 e03c 6856 01be
00000120: f796 1f3e f32e 02be 4fef 46bd a584 9b3d
00000130: ff05 b13d 374d 09bd c463 233d 9535 143e
00000140: be79 c03d 8f32 c2bd 25c7 443d 8ee7 ef3c
00000150: fa9f 1e3e a0a0 48bd ce3a a8bd 6f10 11be
00000160: 0b0c 27be e5a2 873d 6826 05be 8763 da3b
00000170: cacb 4dbd 4612 db3c bae5 ccbd dfdb 2a3e
00000180: 9123 dc3d 7924 ba3c 4d35 973b 9279 bc3b
00000190: 1626 f43d e9a8 81bd 9aa9 47bd f0f4 a0bc
000001a0: d6e3 12bb fba3 9d3d 486f a8bd ad92 a6bd
000001b0: 4ed9 223e 87e8 ebbc f2c0 8ebd f59a 6ebd
000001c0: 2ff2 febd 75c5 2cbd 85df bebc bd6f ce3c
000001d0: 8f7c 0a3e 23a4 ecbc e2f5 693c e174 fc3c
000001e0: 6474 eabd 800f 3d3d 65e3 733d 8bae d0bd
000001f0: bcca efbd ea27 233d 3e7a 2abd 6d9e eb3d
00000200: c6a0 783b 6074 02bd 431a 51bd be59 31bd
00000210: 43ca 933d e137 9c3d 43fc cbbd fb70 7ebd
00000220: cb38 64bd 83e2 43bc eb3f 3a3d 8299 8a3d
00000230: a57c 96bb aaca 633e 0667 c93d 33c1 f1bd
00000240: 38a6 02bc 83f8 fd3d 6648 dfbc c5c7 d13d
00000250: 7d8f 54bd 70c4 1a3e ceba c63d 8ae0 9f3d
00000260: 6f3a 943d 9f64 3a3e 4a9c 9c3d 7758 233e
00000270: 415c 9e3c d7a4 8f3c ebc6 e7bc 9bb7 e33d
