Deeploc/experiments/base_model/last.pth (torch_old, 767856 bytes, 57 tensors)

embedding.weight f4 [21, 20]
0	0xbf871859	-1.0554305
1	0x3f016bf6	0.5055536
2	0xbeae0463	-0.33987722
3	0xbf561b62	-0.8363553
4	0xbe840d55	-0.25791422
5	0x3f24a3ed	0.6431263
6	0x3f76ecd0	0.964551
7	0xbf90c9c4	-1.1311574
8	0xbf27e7b2	-0.65587914
9	0x3f997aaa	1.1990559
10	0xbfff9120	-1.9966164
11	0xbfd12c1b	-1.6341585
12	0xbf115ab0	-0.56779003
13	0xbe9e38e6	-0.30902785
14	0x3ed494d7	0.41519806
15	0x3e46713d	0.19379134
16	0x3f99ea57	1.202464
17	0xbea9e8af	-0.33185336
18	0xbf97bd35	-1.1854616
19	0xbf5a8305	-0.8535617
20	0xbf466e3b	-0.7751195
21	0x3e080138	0.13281715
22	0xbfb0d790	-1.3815784
23	0x3ea58575	0.32328382
24	0xbf9b6443	-1.2139972
25	0xbeccf4b6	-0.4003045
26	0xbf6808b1	-0.9063826
27	0xbe958875	-0.2920567
28	0x3f19d9a4	0.6009772
29	0xbfb9f168	-1.4526796
30	0x3ea28448	0.31741548
31	0x3f616e01	0.8805848
32	0xc008a308	-2.1349506
33	0xbf84ef37	-1.0385503
34	0x3f547e0a	0.8300482
35	0xbf5190b1	-0.81861407
36	0x3e343f3c	0.17602247
37	0xbeca371e	-0.39495176
38	0xbf9165ba	-1.135917
39	0xbe890e96	-0.2676894
40	0x3eb0e0ac	0.3454641
41	0x3f5531cf	0.83279127
42	0xbfc85736	-1.5651615
43	0xbe9d2838	-0.30694747
44	0xbeae006c	-0.33984697
45	0xbebe167f	-0.37126538
46	0xbd00dfc4	-0.0314634
47	0xbf3d6ce1	-0.7399426
48	0xbf1d9840	-0.6156044
49	0x3e87bdcd	0.26511994
50	0xbfdc3c2f	-1.7205867
51	0x400abe3e	2.1678615
52	0xbe350da3	-0.17680983
53	0x3e34e11d	0.17663999
54	0xbfd1f702	-1.6403506
55	0x3f814604	1.0099492
56	0xbeed7706	-0.4637987
57	0xbe210459	-0.15724315
58	0xbee2e579	-0.443157
59	0x3f2de58d	0.6792839
60	0xbf675a68	-0.90372324
61	0x3fa5c9ef	1.295225
62	0x3eaa697b	0.332836
63	0x3f892f12	1.071749
64	0x3e2ee039	0.17077722
65	0xbdd0e0a3	-0.10199096
66	0x3f1a93fd	0.6038206
67	0x3f312336	0.6919435
68	0xbf4135fd	-0.75473005
69	0x3fa65d16	1.2997158
70	0xc00194b7	-2.0247018
71	0xbf3b15b2	-0.7307998
72	0xbe4e6310	-0.20154977
73	0x3f9ac202	1.2090456
74	0xbe9853e0	-0.29751492
75	0x3efff9a5	0.4999515
76	0xbe425520	-0.18977785
77	0x3e7b4ebe	0.24541757
78	0x3ea4e91d	0.322091
79	0x3f8869fe	1.0657346
80	0xbeb51738	-0.35369277
81	0xbfeb81b3	-1.8398956
82	0x3eb04ac5	0.34432045
83	0xbee0a9a3	-0.43879423
84	0x3f76fabe	0.9647635
85	0xbf38f5fb	-0.72250336
86	0xbf9232c4	-1.1421742
87	0x3f052ab4	0.52018285
88	0xbf6b5457	-0.9192557
89	0xbc39ade9	-0.011332967
90	0xbe43b5e1	-0.1911235
91	0xbe36a4b6	-0.1783627
92	0xbe78a9fa	-0.24283591
93	0xbe19df15	-0.15026505
94	0xbf57ab63	-0.8424589
95	0xbee2473b	-0.4419497
96	0xbf5301a2	-0.82424366
97	0x3d86ae9a	0.06576271
98	0x3efe42b9	0.4966028
99	0x3f4390d6	0.7639288
100	0xbe177e34	-0.14794236
101	0x3f74300c	0.95385814
102	0xbf20518a	-0.6262442
103	0xbf40bc7f	-0.7528762
104	0x3eb3fd8b	0.35154375
105	0x3e81c6a4	0.25346863
106	0xbecd3096	-0.4007613
107	0x3f2ad45c	0.66730285
108	0x3fcd7bcf	1.6053408
109	0x3e38a8bd	0.18033119
110	0xbf239d33	-0.6391174
111	0xc0223426	-2.534433
112	0x3fb53453	1.4156593
113	0xc00f114b	-2.2354305
114	0xbfd8dca9	-1.694234
115	0xbf448f4c	-0.76781154
116	0xbee15b01	-0.44014743
117	0xbea13b19	-0.314904
118	0xbf3d15f9	-0.7386165
119	0x3fbd90f0	1.4809856
120	0x3fa844f4	1.3146043
121	0xbf988514	-1.1915612
122	0xbea22dd7	-0.31675598
123	0x3f7bd24a	0.9836775
124	0xbe8e9dad	-0.27854672
125	0x3f890903	1.0705875
126	0x3f76af19	0.9636093
127	0xbf039bb1	-0.5140944
128	0xbdc0792c	-0.09398112
129	0xbf240b4d	-0.64079744
130	0xbe2ca264	-0.16858822
131	0x3d2c8c04	0.042125717
132	0xbc7a09b0	-0.015261099
133	0xbf4c3522	-0.79768574
134	0x3fdeffbd	1.7421795
135	0x3df593ac	0.11991057
136	0x3f52ff68	0.8242097
137	0x3f54b9cc	0.83096004
138	0xbd87eb61	-0.06636692
139	0xbe9dfab4	-0.30855334
140	0xbf20626c	-0.6265018
141	0xbf004c3f	-0.5011634
142	0xbd8e6679	-0.06953139
143	0xbebb8fbb	-0.36633095
144	0xbef41776	-0.4767415
145	0x3fe250cc	1.7680907
146	0xbda80b02	-0.082052246
147	0x3f9f5423	1.2447551
148	0xbf692feb	-0.9108874
149	0x3f5c9ac8	0.8617368
150	0xbfe164ff	-1.7608947
151	0x3f9842ca	1.1895382
152	0xbf16b64d	-0.5887192
153	0x3ebbc311	0.3667226
154	0x3e156899	0.14590682
155	0x3f2f951c	0.685869
156	0x3eda9a60	0.42695904
157	0xbf1898f5	-0.59608394
158	0xbf55a560	-0.8345547
159	0x3ee04020	0.43798923
160	0x3f5eaae8	0.8697953
161	0x3f777ebe	0.9667777
162	0xbe4e299d	-0.20133062
163	0xbe905d72	-0.28196293
164	0x3faffc66	1.3748901
165	0x3e354e8e	0.17705747
166	0xbf88ab1f	-1.0677222
167	0x3fae370f	1.3610553
168	0xbe9533d4	-0.29141104
169	0x3dc9d959	0.09855909
170	0x3e4923dd	0.19642587
171	0x3fe87b71	1.8162671
172	0x3fa349dd	1.2756916
173	0x3ac05c2c	0.0014675907
174	0xbf93cfd3	-1.1547798
175	0x3e323f56	0.17406973
176	0x39b75cb5	0.00034973552
177	0xbd672b9b	-0.05643807
178	0x3eeadbe6	0.45870894
179	0x3e8bccd1	0.273047
180	0x3d45a9d0	0.04825765
181	0x3edde105	0.4333574
182	0xbeef26ac	-0.46709192
183	0x3fb3973f	1.4030532
184	0xbdea5f5f	-0.11443972
185	0xbfa5a1b8	-1.2939978
186	0x3eb7183d	0.3576068
187	0xbede88a2	-0.43463618
188	0xbda11039	-0.07864422
189	0x3f4796e9	0.77964646
190	0xbf8f1cba	-1.1180642
191	0xbf3853e9	-0.72003037
192	0x3ecbab54	0.3977915
193	0x3e82ebb3	0.2557045
194	0x3f1e336e	0.61797225
195	0x3fa7e460	1.311657
196	0xbe953025	-0.29138294
197	0xbf62440c	-0.8838508
198	0xbe800d62	-0.2501021
199	0xbe300de9	-0.17192806
200	0xbf48ed4d	-0.7848709
201	0xbf8515f5	-1.0397326
202	0xbf323eb4	-0.6962693
203	0x3edbdf1a	0.4294365
204	0x3f54b477	0.8308787
205	0xc00a40e1	-2.16021
206	0xbfbd1b4b	-1.4773954
207	0xbf1c1e08	-0.60983324
208	0xbe47f565	-0.19527204
209	0x3f8db605	1.1071173
210	0xbf451630	-0.7698698
211	0x3e8d1abc	0.2755946
212	0x3e217c8c	0.15770167
213	0x3f7fa13b	0.99855393
214	0xbf34bd2c	-0.70601153
215	0xc022aaf5	-2.5416844
216	0xbe62309d	-0.22088857
217	0xbee4a25c	-0.4465512
218	0x3fd315b9	1.6491004
219	0x3ee4a07b	0.44653687
220	0x3f906268	1.1280031
221	0xbfa86b55	-1.3157755
222	0xbfc00a1a	-1.5003083
223	0xbbb3b6f8	-0.005484458
224	0xbf416bb1	-0.7555495
225	0x3e7a9707	0.24471675
226	0x3e3289aa	0.17435327
227	0x3de31eb2	0.11089839
228	0xbd2498d3	-0.040184807
229	0xbff9d5ba	-1.9518349
230	0xbe42def9	-0.1903037
231	0xbfa4f71f	-1.2887915
232	0x3f942f87	1.1577004
233	0x3eb8c651	0.36088803
234	0x3f40c5a8	0.753016
235	0xbef5333a	-0.47890645
236	0x3ee9781e	0.45599455
237	0xbf87bd71	-1.0604688
238	0x3eaa29ee	0.33235115
239	0x3e6f15d3	0.23348169
240	0x3f9800db	1.1875261
241	0x3f15a8a8	0.58460474
242	0x3f13df4e	0.5776261
243	0x3e25acca	0.16179195
244	0xbf075949	-0.52870613
245	0xbfae7f47	-1.3632592
246	0x3f9e496b	1.2366155
247	0x3efc411c	0.49268425
248	0x3f337c9c	0.70112014
249	0xbf0cb6bd	-0.54966336
250	0xbfb61596	-1.4225338
251	0x3f356f21	0.70872694
252	0x4002850c	2.0393705
253	0xbe84d218	-0.2594154
254	0xbf9eef5a	-1.2416794
255	0xbea0b748	-0.31389832

lstm.weight_ih_l0 f4 [160, 20]
0	0x3d82f046	0.06393485
1	0xbdd51f21	-0.10406328
2	0x3d126012	0.03573615
3	0x3c0b41ae	0.008499546
4	0x3e403dd1	0.18773581
5	0xbd6531a4	-0.055955544
6	0x3da073e9	0.07834608
7	0x3dab12ae	0.08353172
8	0xbd1d4011	-0.038391177
9	0xbd9b21e3	-0.07574823
10	0x3c637ab5	0.013884236
11	0x3dd735fd	0.10508344
12	0x3e1b42c8	0.15162194
13	0x3ddde352	0.108343735
14	0x3d781b87	0.060573127
15	0xbe1377cc	-0.14401168
16	0xbe171b38	-0.14756477
17	0x3db99d62	0.090632215
18	0xbda3f04b	-0.080048166
19	0xbcb4db4b	-0.022077223
20	0x3d449715	0.047995646
21	0xbdb34ab6	-0.08754484
22	0x3d07a116	0.033112608
23	0x3d3a6b62	0.045512564
24	0xbcd45d1c	-0.025923304
25	0xbc9ee219	-0.019394921
26	0x3dfb97ed	0.12284837
27	0x3dc1f79f	0.09471058
28	0xbdfb9817	-0.12284868
29	0x3ddbcf1c	0.10732862
30	0x3d06eda4	0.032941476
31	0xbdcf301d	-0.10116599
32	0x3db86054	0.09002748
33	0x3dd72d79	0.1050672
34	0xbcdc5532	-0.026896093
35	0x3dcf0765	0.10108832
36	0x3de3ef38	0.11129612
37	0xba166ba3	-0.0005738085
38	0xbdcdec6c	-0.100548595
39	0xbd4bd6b9	-0.049765322
40	0xbdb96494	-0.09052387
41	0xbe306351	-0.17225386
42	0x3e0ec807	0.13943492
43	0xbe4c309b	-0.19940417
44	0xbd38d29f	-0.04512274
45	0x3d6be124	0.057587758
46	0xbc12f9ae	-0.008970661
47	0xbb415876	-0.002950219
48	0xbd4fd81c	-0.050743207
49	0x3c4c07c5	0.012453024
50	0xbdd16448	-0.10224205
51	0x3dd22773	0.102614306
52	0x3dc69853	0.09697022
53	0x3daaa34d	0.083319284
54	0x3dfbb088	0.1228953
55	0xbd9b03de	-0.07569097
56	0x3c9176b5	0.0177568
57	0x3e1cbde3	0.15306811
58	0xbc22e18e	-0.009941472
59	0x3de0311d	0.109468676
60	0x3d82d7eb	0.06388839
61	0x3d8b97f7	0.06816094
62	0xbddcc454	-0.10779634
63	0xbe3a7674	-0.18209249
64	0xbe2d2225	-0.16907556
65	0xbd50803e	-0.05090355
66	0xbd8106a1	-0.063000925
67	0xbdd70fd8	-0.10501069
68	0x3d10aa9c	0.035318956
69	0xbdc46832	-0.09590186
70	0x3e07ad70	0.13249755
71	0xbda50cee	-0.08059107
72	0x3dcb5ea4	0.09930161
73	0xbe1212a6	-0.14264926
74	0x3dd950a1	0.10611082
75	0x3d464aa0	0.04841101
76	0x3e057411	0.13032557
77	0x3dcc67d8	0.09980744
78	0xbcbb2128	-0.022842959
79	0xbd38b179	-0.045091126
80	0xbd9a0a1b	-0.07521459
81	0xbd1108ac	-0.03540866
82	0xbc1284c1	-0.008942784
83	0xbd8a9388	-0.067664206
84	0x3c41715a	0.01180681
85	0xb98eff82	-0.0002727472
86	0xbdcdfc55	-0.10057894
87	0xbde0f209	-0.109836645
88	0x3dbd14a4	0.092324525
89	0xbdf57fb1	-0.11987246
90	0x3dd0b908	0.10191542
91	0xbdc1bc8c	-0.094597906
92	0x3d6c0c2b	0.05762879
93	0xbd74daf5	-0.059779126
94	0xbbf81a7b	-0.007571516
95	0xbe2dc3d1	-0.1696923
96	0x3cf8ffb2	0.030395363
97	0xbc9125d1	-0.017718228
98	0xbd991236	-0.074741766
99	0xbcbe7136	-0.023247343
100	0xbd9f5ded	-0.07781587
101	0xbcb3ff67	-0.021972371
102	0x3de3524a	0.1109968
103	0x3d1df593	0.038564276
104	0xbe1eaa6d	-0.154947
105	0xbe1451c2	-0.14484313
106	0xbdab0916	-0.083513424
107	0xbde26dc5	-0.11056093
108	0xbe012a02	-0.12613681
109	0x3dcf2c52	0.10115875
110	0xbd4f38fa	-0.050591446
111	0xbe2e7700	-0.17037582
112	0xbe0e615d	-0.13904329
113	0xbdced7d7	-0.10099762
114	0x3e182009	0.1485597
115	0x3dcfbca1	0.101434
116	0x3dbc70dd	0.092012145
117	0xbdcfb5d3	-0.10142102
118	0x3e00f98e	0.12595198
119	0x3dcedc69	0.10100634
120	0x3d578019	0.052612398
121	0xbdb830ad	-0.08993659
122	0xbb02c78f	-0.0019955372
123	0xbe193818	-0.14962804
124	0xbe3ce4dc	-0.18446678
125	0x3e3da5b6	0.18520245
126	0xbbc07638	-0.005873468
127	0xbde102c4	-0.109868556
128	0xbe3dea8c	-0.18546504
129	0xbca6bdb6	-0.020354133
130	0x3d7ffe4b	0.062498372
131	0x3da931d1	0.08261455
132	0x3d61e7dc	0.05515276
133	0x3d6f0091	0.05835015
134	0xbcc68d02	-0.02423716
135	0x3d9a7910	0.07542622
136	0xbda93bb4	-0.082633406
137	0x3e2e3d96	0.1701568
138	0xbe3dcd80	-0.18535423
139	0xbe42e2ca	-0.19031826
140	0xbca4c258	-0.020112202
141	0xbd0d429a	-0.034487344
142	0x3dcc30d9	0.099702545
143	0x3995a22e	0.00028540328
144	0x3ddfd52c	0.10929331
145	0xbda514a7	-0.0806058
146	0xbdb57777	-0.08860677
147	0xbe317952	-0.17331436
148	0x3d13ded6	0.036101185
149	0x3db8bf96	0.09020917
150	0xbe315558	-0.17317712
151	0xbcbce3fb	-0.023057928
152	0x3b4775c0	0.0030435175
153	0xbcc15e3f	-0.02360451
154	0x3e2ac77f	0.16677664
155	0xbcb96758	-0.022632286
156	0xbe02639d	-0.12733312
157	0x3d24f4bb	0.040272456
158	0x3c5cc167	0.013473845
159	0xbe168644	-0.14699656
160	0x3e058bb4	0.13041574
161	0x3d2a35a3	0.04155506
162	0xbce23a99	-0.027615832
163	0x3df5bff2	0.11999501
164	0xbda19bbd	-0.07891033
165	0x3e1d98f6	0.15390381
166	0x3df0d251	0.11758865
167	0xbd5c8e23	-0.05384649
168	0xbdb27122	-0.087129846
169	0x3d4e49ad	0.05036323
170	0x3de70f2e	0.11282192
171	0xbe13d835	-0.14437945
172	0xbe0ed4b5	-0.13948329
173	0x3da82d08	0.08211714
174	0xbd9f929e	-0.07791637
175	0xbe154fc3	-0.14581208
176	0xbd8318f7	-0.06401246
177	0x3d683192	0.0566879
178	0x3cc58b32	0.024114225
179	0x3e02d4bd	0.12776466
180	0xbe0cb841	-0.13742162
181	0x3da89921	0.08232332
182	0x3df505ff	0.11964034
183	0x3dbac8c4	0.09120324
184	0xbd534f8c	-0.051589534
185	0xbd1be5af	-0.03806084
186	0xbdfef92c	-0.124498695
187	0xbd7c22c0	-0.061556578
188	0xbdd42bce	-0.103599176
189	0xbe13bd05	-0.14427574
190	0x3dbdc6ca	0.09266432
191	0xbd76287a	-0.060097195
192	0xbe18ceb1	-0.14922597
193	0xbdf42217	-0.119205646
194	0x3ce54484	0.027986772
195	0xbe07dec9	-0.1326858
196	0xbd8d6627	-0.0690425
197	0xbca828fe	-0.02052736
198	0xbd91c1c0	-0.07117033
199	0x3d2ac0e2	0.041687854
200	0xbdb584f8	-0.088632524
201	0x3dbb5d26	0.09148626
202	0xbd86bceb	-0.06579002
203	0x3cc2ec30	0.023794264
204	0xbdb6ac8a	-0.08919628
205	0x3db6563c	0.08903167
206	0x3e035219	0.12824287
207	0x3deb2837	0.1148228
208	0xbe0ce72e	-0.13760063
209	0x3db6212c	0.08893046
210	0x3cb9bf34	0.02267418
211	0xbe27f55a	-0.16402188
212	0x3e3654a4	0.17805725
213	0x3c257922	0.010099681
214	0x3dc3e593	0.09565272
215	0xbdc338e6	-0.09532337
216	0x3d2f9304	0.042864814
217	0xbcecdf99	-0.028915213
218	0xbe4493fd	-0.19197078
219	0xbde886a2	-0.11353804
220	0x3dafa177	0.08575719
221	0xbc920041	-0.017822387
222	0xbdec24b5	-0.11530439
223	0x3dd78f56	0.10525386
224	0xbd9f32b2	-0.07773341
225	0xbd8cbcae	-0.06871925
226	0x3e0e0916	0.13870654
227	0xbddbd771	-0.107344516
228	0xbd4172ef	-0.04722875
229	0x3d9c70f3	0.07638731
230	0xbd00f85a	-0.031486847
231	0xbd94dd2f	-0.0726875
232	0x3e038220	0.12842607
233	0x3dd566d4	0.104200035
234	0x3d051bf6	0.03249737
235	0xbc8fe5a7	-0.017565561
236	0x3e22ae2e	0.15886757
237	0x3dadb2fe	0.08481406
238	0x3d93999b	0.07207032
239	0x3c8c6b8b	0.017141124
240	0xbb688506	-0.0035479679
241	0xbd128973	-0.035775613
242	0xbdbdf958	-0.09276074
243	0xbc808146	-0.015686642
244	0x3da1352e	0.07871471
245	0x3d7f4314	0.06231983
246	0xbe35464d	-0.17702599
247	0xbbe4bd87	-0.006980601
248	0xbd52040e	-0.051273398
249	0x3df44345	0.11926893
250	0xbd56fb50	-0.052485764
251	0xbe1489d0	-0.14505696
252	0xbcc174e6	-0.023615312
253	0x3df7100e	0.12063609
254	0xbb2be5e9	-0.0026229566
255	0xbd5f83c3	-0.054569017

lstm.weight_hh_l0 f4 [160, 40]
0	0xbdc82988	-0.097735465
1	0x3dad52d7	0.08463066
2	0xbd89aaef	-0.06722056
3	0xbde2aa5f	-0.11067652
4	0x3e3fd4ff	0.18733595
5	0xbd7c480e	-0.061592154
6	0x3dcbd70e	0.09953128
7	0x3c0e1f37	0.008674434
8	0x3d05d19a	0.032670595
9	0xbdfc7a75	-0.12328044
10	0xbde26577	-0.11054509
11	0xbe12bafa	-0.14329138
12	0x3d03e115	0.032197077
13	0x3ca086ad	0.019595468
14	0xbc9b0412	-0.01892284
15	0xbce74498	-0.02823095
16	0xbd9cba4f	-0.07652723
17	0x3d0c82b2	0.03430433
18	0xbd68d62e	-0.056844883
19	0x3d530aa6	0.051523827
20	0xbdbdd0e6	-0.0926836
21	0xbd8ff76e	-0.07029615
22	0xbe0fe07a	-0.14050475
23	0x3e107b47	0.14109527
24	0x3e331343	0.17487817
25	0x3d3a53e1	0.04549015
26	0x3cfbe439	0.030748473
27	0xbdf56e5c	-0.1198394
28	0xb827572c	-3.9897088e-05
29	0x3c05c1f8	0.008163922
30	0xbe238c01	-0.15971376
31	0x3de20a6f	0.11037146
32	0x3dbcbe9c	0.09216043
33	0xbdb42c9c	-0.08797571
34	0xbded3ac7	-0.115834765
35	0xbe239143	-0.15973382
36	0x3e1bf615	0.15230592
37	0xbe3c994a	-0.1841785
38	0xbdf3e306	-0.11908536
39	0xbd1de731	-0.03855056
40	0xbe17bb5a	-0.14817563
41	0x3d9a6e0c	0.07540521
42	0xbe0b5cef	-0.1360967
43	0x3e29dc94	0.1658805
44	0xbd94621f	-0.072452776
45	0x3e21be29	0.15795197
46	0x3e47d909	0.19516386
47	0x3d56cdb7	0.05244228
48	0x3db2a4aa	0.087228134
49	0x3e0e8ef8	0.13921726
50	0x3dd60daf	0.10451829
51	0x3d8386c3	0.06422188
52	0x3cdc66ea	0.026904542
53	0xbd8b14a1	-0.06791044
54	0x3d537860	0.05162847
55	0xbd170da6	-0.03687825
56	0x3ded7c56	0.11595981
57	0xbd89c40e	-0.067268476
58	0xbbdca698	-0.0067337267
59	0xbe01e249	-0.12683977
60	0xbd4ef818	-0.05052957
61	0xbd742382	-0.059604175
62	0xbe18cf2e	-0.14922783
63	0x3ded2d37	0.1158089
64	0xbb6b2d6f	-0.0035885235
65	0x3e0617fe	0.1309509
66	0xbdbbf4f1	-0.09177578
67	0xbdc9976b	-0.09843334
68	0xbdc74854	-0.09730592
69	0x3d2e7d58	0.042600006
70	0x3d57e1f2	0.052705713
71	0xbddebde9	-0.10876066
72	0x3cb17554	0.021662392
73	0xbd4746de	-0.04865157
74	0x3dd01023	0.10159328
75	0xbe36c41d	-0.17848249
76	0x3defa65a	0.11701651
77	0x3d2e816d	0.0426039
78	0xbdbf349c	-0.09336206
79	0xbdddb2a5	-0.10825089
80	0x3df9c3c9	0.12195546
81	0x3dc4d7cc	0.096114725
82	0x3dae68a8	0.08516055
83	0x3d66c63d	0.0563414
84	0x3e00f7d4	0.12594539
85	0xbd03a2e9	-0.032137785
86	0x3db6e08c	0.08929548
87	0xbcac097c	-0.021000616
88	0x3db30043	0.08740284
89	0x3db29a14	0.08720794
90	0x3d3ea53d	0.046544302
91	0x3dea7dd2	0.114497796
92	0xbe2c0103	-0.16797261
93	0x3e1a7b08	0.15085995
94	0xbbe97f2c	-0.007125756
95	0x3d9518ec	0.07280144
96	0x3dca4bbd	0.09877727
97	0xbd14e00b	-0.036346477
98	0x3e00ce34	0.1257866
99	0x3d7baa5c	0.061441764
100	0xbde37eac	-0.11108145
101	0xbe0a64b0	-0.13514972
102	0x3e0fa171	0.14026429
103	0xbddca361	-0.107733496
104	0xbdc6ca0b	-0.097065054
105	0xbe0f4d94	-0.13994437
106	0x3df39943	0.11894467
107	0xbda07e27	-0.07836562
108	0x3e0304a2	0.12794736
109	0xbdfe1d40	-0.12407923
110	0x3de338fb	0.110948525
111	0x3d3fde32	0.04684276
112	0x3e106f0f	0.14104865
113	0xbc46c791	-0.012132541
114	0x3d5018b4	0.05080481
115	0xbdd39b39	-0.10332341
116	0xbd6db552	-0.05803425
117	0xbd8cf12d	-0.06881938
118	0x3a8f4c35	0.0010932746
119	0xbdc6ea6b	-0.097126804
120	0x3d21c1df	0.03949153
121	0x3dc7959d	0.09745333
122	0xbdee8202	-0.11645891
123	0xbe0a57f4	-0.13510114
124	0x3dc2925b	0.09500571
125	0x3d1b2506	0.037877105
126	0x3e5583c6	0.20851049
127	0xbd900946	-0.07033019
128	0xbddc8d69	-0.10769159
129	0x3d9bca09	0.076068945
130	0xbd3ddefd	-0.046355236
131	0xbd777fe8	-0.060424715
132	0x3df4de70	0.11956489
133	0x3d890435	0.066902556
134	0x3e064ec0	0.13115978
135	0x3d825a03	0.063648246
136	0xbdb76f10	-0.0895673
137	0xbc940c36	-0.018072229
138	0xbd8f72ce	-0.07004319
139	0xbcbaa967	-0.022785855
140	0x3e3c3a53	0.18381624
141	0xbcea474f	-0.028598456
142	0xbe19ea02	-0.15030673
143	0x3c30f19c	0.010799792
144	0xbd0c70eb	-0.034287374
145	0x3de156c9	0.11002881
146	0xbe3dfdbf	-0.18553828
147	0xbc94f868	-0.018184856
148	0x3a4dbcd4	0.0007848267
149	0xbe360d29	-0.17778458
150	0xbda6fb98	-0.081534564
151	0xbda4160d	-0.08012018
152	0x3e0950ab	0.13409679
153	0xbde17cb4	-0.11010113
154	0xbd907bc6	-0.07054858
155	0xbe182297	-0.14856945
156	0x3de4d2b9	0.11173005
157	0xbddede9b	-0.108823024
158	0xbb0ac211	-0.0021172801
159	0xbd548184	-0.05188133
160	0xbdb62a7c	-0.08894822
161	0xbd59c1bf	-0.053163286
162	0x3e157141	0.14593984
163	0x3d952155	0.07281748
164	0x3e1a8b04	0.15092093
165	0x3d2b1260	0.04176557
166	0x3e2fb50c	0.17158908
167	0x3dd73e61	0.10509945
168	0xbd2482dd	-0.040163863
169	0x3c83a7c0	0.0160712
170	0x3c74311a	0.014904285
171	0xbe07f004	-0.13275152
172	0x3d2a8747	0.041632917
173	0xbc8a3f0e	-0.01687577
174	0x3ca5c293	0.020234382
175	0x3ce21186	0.027596246
176	0xbd9db704	-0.07700923
177	0x3e1e9f79	0.15490521
178	0x3d69a08d	0.05703788
179	0x3df8d3b3	0.121497534
180	0x3ddabe82	0.10680868
181	0xbcc2b078	-0.023765787
182	0xbd5a6cc5	-0.053326387
183	0x3e005a2c	0.12534398
184	0xbdb0af25	-0.08627156
185	0x3e0ff2d1	0.14057471
186	0xbda6d101	-0.08145333
187	0x3d3fb975	0.046807725
188	0xbd86048b	-0.06543835
189	0xbd2c16f3	-0.042014074
190	0xbdc4ef05	-0.09615902
191	0xbcd265ce	-0.02568331
192	0xbd81644f	-0.063179605
193	0xbe282a40	-0.16422367
194	0xbe0a3432	-0.13496473
195	0xbe2fe199	-0.17175902
196	0x3ddfa296	0.10919683
197	0xbc0c62c7	-0.008568472
198	0xbdef3b5d	-0.116812445
199	0x3e41cd87	0.18926059
200	0x3c06e715	0.008233805
201	0x3d88ae70	0.06673896
202	0x3e17dc62	0.14830163
203	0x3cc5b95f	0.024136243
204	0xbe0fcba9	-0.14042534
205	0xbe08fd46	-0.13377866
206	0xbd72c3ef	-0.059268888
207	0x3a81395c	0.0009859013
208	0xba4a6e8c	-0.0007722161
209	0x3dfa312f	0.12216412
210	0xbd922348	-0.071356356
211	0xbdeb4efe	-0.11489676
212	0xbdd1d281	-0.102452286
213	0x3d9c4b18	0.076315105
214	0x3e2e12cb	0.16999356
215	0xbdf0c023	-0.11755397
216	0x3c4a02a8	0.012329735
217	0xbe11861a	-0.14211312
218	0xbdae9fbe	-0.08526562
219	0xbd8c38f9	-0.06846804
220	0x3cb92157	0.022598905
221	0x3b29e023	0.002592095
222	0x3dccf019	0.100067325
223	0x3ca5f874	0.020260073
224	0xbc96981b	-0.018383076
225	0x3e0eb168	0.13934863
226	0xbb38da14	-0.0028206157
227	0x3c6c748d	0.014432085
228	0xbe125294	-0.14289314
229	0x3c90a3ba	0.017656196
230	0xbda0bb0b	-0.078481756
231	0x3d8daa06	0.06917195
232	0x3de7a0b6	0.1130995
233	0x3bd37f70	0.0064544007
234	0x3d8875df	0.06663107
235	0xbdb6ca4e	-0.08925305
236	0x3c3d94ac	0.011571091
237	0x3df7ba73	0.12096109
238	0x3daf3ce1	0.085565336
239	0xbc9b1ee2	-0.018935625
240	0x3db48265	0.08813933
241	0x3e0943b8	0.13404739
242	0xbbe42e4a	-0.006963526
243	0x3de68b9b	0.112570964
244	0x3c39793b	0.0113204075
245	0x3e2225c7	0.15834723
246	0x3bdac4fb	0.006676314
247	0x3e1c9c05	0.15293892
248	0xbe232724	-0.159329
249	0x3d1e8417	0.03870019
250	0x3da99def	0.082820766
251	0xbc303e96	-0.010757109
252	0xbe2c7250	-0.16840482
253	0xbc0208e8	-0.007936694
254	0x3deff9bf	0.11717557
255	0x3df9c2b7	0.12195342

lstm.bias_ih_l0 f4 [160]
0	0xbd3abe15	-0.045591433
1	0x3e159c55	0.14610417
2	0xbd274d85	-0.040845413
3	0x3cd17ce9	0.025572257
4	0xbd95ab7c	-0.07308099
5	0xbdc26085	-0.09491066
6	0x3db866d9	0.09003992
7	0x3e151f47	0.14562713
8	0xbcbeba5a	-0.023282219
9	0xbe1605a0	-0.14650583
10	0x3d859427	0.065223984
11	0x3df261e5	0.11835078
12	0xbe03e211	-0.12879206
13	0x3d9d57d5	0.07682768
14	0x3d2e354f	0.042531308
15	0xbd503f9c	-0.050841913
16	0xbd8c8dd8	-0.06862992
17	0x3e304827	0.17215024
18	0xbd1ebd3b	-0.038754683
19	0x3e11e8d8	0.14248979
20	0x3e2a650d	0.1664011
21	0x3e2a0b9a	0.16605988
22	0x3e1e8030	0.15478587
23	0x3c790306	0.015198475
24	0x3ce06411	0.027391465
25	0xbdcfdd00	-0.10149574
26	0x3cdb0603	0.026736265
27	0xbd67acd9	-0.056561325
28	0x3d19ab2c	0.037516758
29	0x3e24705c	0.16058487
30	0xbcac83b2	-0.021058891
31	0xbe0876a0	-0.13326502
32	0xbe00f25e	-0.12592456
33	0x3d8e7c32	0.06957282
34	0xbd3f4118	-0.046692938
35	0x3e28da23	0.16489463
36	0x3d90cf07	0.07070737
37	0x3d89858c	0.06714925
38	0x3ddbff4d	0.10742054
39	0x3e240494	0.16017371
40	0x3db3bc64	0.08776167
41	0x3dc7c745	0.097548045
42	0x3e2e5134	0.17023164
43	0xbde7768c	-0.11301908
44	0x3e049f46	0.12951383
45	0xbdfc15fb	-0.1230888
46	0xbe0392e6	-0.12849006
47	0x3ce61d02	0.028090004
48	0xbca40378	-0.020021185
49	0x3dc67780	0.096907616
50	0xbdd72e42	-0.1050687
51	0xbd2aa479	-0.04166076
52	0xbd2ff0c9	-0.04295424
53	0xbdb0d7cd	-0.08634911
54	0xbd3258c1	-0.043541674
55	0xbac33082	-0.0014891776
56	0xbb3d5d51	-0.0028894732
57	0xbdd88c92	-0.10573687
58	0xbd916501	-0.07099343
59	0x3e00e090	0.12585664
60	0xbdcf54d5	-0.10123602
61	0x3ce20ead	0.027594889
62	0x3dd7f21d	0.10544226
63	0x3e27eb42	0.16398337
64	0x3cfd2ba6	0.030904602
65	0xbc9a8f99	-0.0188673
66	0x3e1945a4	0.14967972
67	0x3e3648aa	0.17801157
68	0xbd31aa8f	-0.043375548
69	0x3e2af814	0.16696197
70	0xbdae6de5	-0.085170545
71	0x3dd3803b	0.103271924
72	0x3d95d6e6	0.07316379
73	0x3d5afd87	0.05346444
74	0x3d725390	0.059161723
75	0x3e2a235a	0.16615048
76	0xbc77e4e6	-0.015130257
77	0xbcd05989	-0.025433319
78	0x3e02f392	0.12788227
79	0xbda159c4	-0.078784496
80	0x3de2c534	0.1107277
81	0xbdab3386	-0.08359437
82	0xbd88d403	-0.06681063
83	0x3d76cb7e	0.06025266
84	0x3e0a135d	0.13483949
85	0x3cbfb2b8	0.02340065
86	0xbd1019cb	-0.035180848
87	0xbc8e710e	-0.017387893
88	0x3d707e3d	0.05871414
89	0x3e42b496	0.190142
90	0x3c98cf6c	0.018653594
91	0x3da54fac	0.08071837
92	0xbe236fe6	-0.15960655
93	0x3e200ba3	0.15629439
94	0x3e0b2b53	0.13590746
95	0xbe36cc82	-0.17851451
96	0xbe09262a	-0.13393465
97	0x3de43b0a	0.11144073
98	0xbe46f626	-0.19429836
99	0xbe384301	-0.1799431
100	0x3db97e6e	0.09057318
101	0x3b853921	0.004065648
102	0xbcac8b87	-0.021062626
103	0x3e2cabcc	0.1686241
104	0x3e0639b7	0.13107954
105	0x3e288956	0.1645864
106	0xbda2a7ed	-0.079421856
107	0x3e330223	0.17481284
108	0xbbfc4807	-0.007699016
109	0xbe1a9679	-0.15096463
110	0xbcc46d47	-0.023977889
111	0xbe0235db	-0.12715857
112	0xbd9624ab	-0.073312126
113	0x3dc88316	0.09790628
114	0xbe15e907	-0.14639674
115	0xbd846015	-0.06463639
116	0xbe45a374	-0.19300634
117	0xbc54a7e8	-0.012979485
118	0xbd057c35	-0.032589156
119	0x3e0e66ca	0.13906398
120	0xbd5b2f67	-0.053512003
121	0x3b0f7b19	0.002189344
122	0x3d576119	0.052582834
123	0x3dc040d2	0.093873635
124	0xbd04e529	-0.032445107
125	0x3d637238	0.05552885
126	0xbd528522	-0.051396497
127	0xbdc673b7	-0.096900396
128	0xbc205676	-0.009786239
129	0xbdb5b993	-0.08873286
130	0xbdcf9c94	-0.10137287
131	0xbdc145e5	-0.094371594
132	0x3dfd7df1	0.12377537
133	0x3d8e7b78	0.069571435
134	0xbdd135ac	-0.10215315
135	0x3d6ed1c3	0.058305513
136	0x3d64d990	0.055871546
137	0xbd511c13	-0.051052164
138	0x3da14194	0.07873836
139	0xbddf0930	-0.10890424
140	0xbcf1a163	-0.0294959
141	0x3ce6f8bc	0.028194778
142	0x3c2cf276	0.010555854
143	0x3da4ad4a	0.08040865
144	0x3e017351	0.12641646
145	0x3dc2b153	0.09506478
146	0x3d0d2121	0.034455422
147	0x3e116f63	0.14202647
148	0xbd2b3f6d	-0.041808534
149	0xbd02b4c4	-0.031910673
150	0xbd46bb40	-0.04851842
151	0x3e0f1e60	0.13976431
152	0xbcead3db	-0.028665474
153	0xbd56a54d	-0.052403737
154	0x3dba4b5f	0.09096407
155	0xbc99418f	-0.018708019
156	0x3d42c4b3	0.04755087
157	0x3d799b38	0.060939044
158	0xbe1e8f51	-0.15484358
159	0x3c9b51e7	0.018959953

lstm.bias_hh_l0 f4 [160]
0	0x3d46e31f	0.048556443
1	0xbd8eb146	-0.06967406
2	0x3d5c06d5	0.053717453
3	0x3e3e52cd	0.18586273
4	0x3e27c4c6	0.16383657
5	0xbdb17b3a	-0.08666082
6	0xbdcc7306	-0.099828765
7	0x3c4e763b	0.0126014305
8	0x3d3a472f	0.045478042
9	0xbd9ac8f3	-0.07557859
10	0x3de89dd1	0.11358226
11	0x3de35c22	0.11101557
12	0xbcd3c8f4	-0.025852658
13	0x3e32c6f4	0.17458707
14	0xbd62853f	-0.055302855
15	0xbda01280	-0.078160286
16	0x3d0dedad	0.034650493
17	0x3e108982	0.14114955
18	0x3e3d4072	0.18481615
19	0xbd8a83c5	-0.06763414
20	0xbac0ce17	-0.0014709857
21	0x3e4627e4	0.19351155
22	0xbe069369	-0.1314217
23	0x3da52de6	0.08065395
24	0x3e3e5b26	0.18589458
25	0x3dea458a	0.11439045
26	0x3e1a672d	0.15078421
27	0x3d0eaa17	0.03483018
28	0x3e274852	0.16336182
29	0x3cd46582	0.025927309
30	0xbd64e0ad	-0.05587833
31	0xbae98824	-0.0017817062
32	0xbd029be5	-0.031886954
33	0xbb42df95	-0.0029735316
34	0x3e1ebe8d	0.15502377
35	0x3d84e943	0.06489804
36	0x3bef0c56	0.0072951717
37	0x3d89a63e	0.06721161
38	0x3dc6b375	0.097021975
39	0xbcefb088	-0.029258981
40	0x3c78caa4	0.015185032
41	0x3d40a281	0.047029976
42	0x3d07681b	0.033058267
43	0xbdc25ae2	-0.09489991
44	0x3c417b52	0.011809187
45	0xbd3e9d5d	-0.046536792
46	0xbe043339	-0.12910165
47	0xbd4262d1	-0.04745752
48	0x3e08b7bf	0.13351344
49	0x3dc33396	0.095313236
50	0x3e31febc	0.1738233
51	0xbddcc607	-0.10779958
52	0xbdf0bbf8	-0.11754602
53	0xbd4f8535	-0.050664145
54	0x3c99f3a4	0.018792935
55	0x3dc01a4c	0.09380016
56	0xbdde3df1	-0.10851658
57	0x3d907c7c	0.070549935
58	0x3d745eee	0.059660845
59	0x3e1ea727	0.15493451
60	0x3bd67280	0.006544411
61	0xbc893b13	-0.016751802
62	0xbdcb9a45	-0.09941534
63	0xbcf4a6c7	-0.029864682
64	0xbd8d7de5	-0.06908778
65	0x3db8180e	0.08988963
66	0xbddd3916	-0.10801904
67	0xbcb0a7ea	-0.021564443
68	0xbdc81bad	-0.09770904
69	0x3e08050e	0.13283178
70	0x3e14e3c0	0.14540005
71	0x3e17bb40	0.14817524
72	0xbcc4c4f4	-0.024019696
73	0xbdb3791c	-0.08763334
74	0x3d1d2fe4	0.03837575
75	0xbcb8fcad	-0.022581423
76	0xbd8f6867	-0.07002335
77	0x3e2758a8	0.16342413
78	0xbd84ea26	-0.06489973
79	0x3e232ba5	0.15934618
80	0xbd018d48	-0.031628877
81	0x3cf7b1db	0.030236175
82	0xbc00b7dd	-0.007856336
83	0x3cc8f7f8	0.024532303
84	0x3e1421a2	0.14465955
85	0x3cc5b54a	0.024134297
86	0x3e20d2de	0.1570544
87	0x3e3be1e4	0.18347889
88	0x3b5b06c5	0.0033420783
89	0x3dc3b21d	0.09555457
90	0x3dd4d788	0.10392672
91	0x3de0e03c	0.10980269
92	0xbd17e0ac	-0.0370795
93	0x3d448861	0.047981624
94	0x3cebe1c2	0.028794173
95	0x3d6b4b92	0.057445116
96	0x3d96302b	0.07333406
97	0x3e092eff	0.13396834
98	0x3d9f3a8e	0.0777484
99	0x3dbe79b8	0.0930056
100	0xbd70ed02	-0.05881978
101	0xbe4a2fcc	-0.19744796
102	0xbdebb8e4	-0.115098745
103	0xbd34e9bc	-0.04416822
104	0xbd46de63	-0.04855193
105	0x3dd073ff	0.101783745
106	0xbe33bfd5	-0.17553647
107	0x3d3bd567	0.045857813
108	0x3d470f1c	0.048598394
109	0xbb4e3fec	-0.0031471206
110	0x3cce1746	0.025157582
111	0xbd6166c4	-0.055029646
112	0x3d9cd338	0.07657474
113	0xbdaa6e6a	-0.08321841
114	0xbe1a43fe	-0.15065
115	0xbe0cb766	-0.13741836
116	0xbde7f42e	-0.113258705
117	0x3d8d1f5a	0.068907455
118	0xbdac9822	-0.084274545
119	0x3e06c99a	0.13162842
120	0x3d15685b	0.036476474
121	0x3df883a8	0.121344864
122	0x3b8068e6	0.003918755
123	0x3d0d9195	0.034562666
124	0x3dce0288	0.100590765
125	0x3d67fc70	0.056637228
126	0x3e2fe210	0.1717608
127	0x3dbcb0a5	0.0921338
128	0x3d3d1ac7	0.046168115
129	0x3d92d708	0.0716992
130	0xbc88fe8d	-0.016722942
131	0x3ccd659e	0.025072869
132	0xbd99c78e	-0.07508765
133	0x3c0a2bc9	0.008433291
134	0xbdc0f234	-0.094211966
135	0xbd709ad3	-0.058741402
136	0x3c9ac286	0.018891584
137	0x3c8bfc45	0.017088065
138	0xbac982be	-0.0015374047
139	0xbb5250bf	-0.0032091585
140	0x3ddb0536	0.10694353
141	0xbd16526b	-0.036699694
142	0x3e378f71	0.17925812
143	0x3e2d5c9e	0.16929862
144	0x3d7753ad	0.060382534
145	0xbdc2d845	-0.095139064
146	0xbd8b9ba2	-0.06816794
147	0x3daa43b4	0.083136946
148	0x3e1a2ef5	0.15056975
149	0xbd83c415	-0.06433884
150	0x3e00a944	0.1256457
151	0x3dc2c50c	0.0951024
152	0x3df8b777	0.12144368
153	0x3da5b587	0.08091264
154	0x3c3b8cbc	0.011447128
155	0xbde55779	-0.11198325
156	0x3e1002b5	0.14063533
157	0xbdb4e066	-0.08831863
158	0xbe244044	-0.1604014
159	0xbcdd2929	-0.026997166

lstm.weight_ih_l0_reverse f4 [160, 20]
0	0xbda4fe01	-0.0805626
1	0x39f8e78a	0.00047474756
2	0x3d883652	0.06650986
3	0xbdf76961	-0.12080646
4	0x3e12ec12	0.14347866
5	0xbe0327e4	-0.12808186
6	0xbcc9ab55	-0.02461783
7	0x3cf21d6a	0.029555041
8	0xbe2f9b74	-0.17149144
9	0x3dae5e40	0.085140705
10	0x3d7a12da	0.061053135
11	0x3dd69502	0.1047764
12	0xbcee6209	-0.029099481
13	0xbdb47033	-0.08810463
14	0x3dab2cd2	0.08358158
15	0x3dba2727	0.09089499
16	0xbd8d24c1	-0.06891776
17	0xbd4bf314	-0.049792364
18	0xbd5e7570	-0.054311216
19	0x3dcf2e7f	0.1011629
20	0x3d8414a1	0.06449247
21	0x3dbf3db7	0.09337943
22	0xbe3a4290	-0.18189454
23	0xbd863d68	-0.06554681
24	0x3e2c2156	0.16809592
25	0x3d148589	0.03626016
26	0xbcfbf2e9	-0.030755477
27	0x3e0fc3f4	0.14039594
28	0x3d5f0a56	0.054453216
29	0xbe1f2ca4	-0.15544373
30	0x3dfff47a	0.12497802
31	0xbd0c9cd6	-0.034329258
32	0x3d254c97	0.040356245
33	0x3e0762c5	0.13221271
34	0xbdef2535	-0.116770186
35	0x3dc3b80f	0.09556591
36	0x3dccadcd	0.09994087
37	0x3d07ab63	0.03312243
38	0x3e22c5b6	0.15895733
39	0xbd2b5e7e	-0.04183816
40	0xbd045fae	-0.03231781
41	0xbdd3ef07	-0.10348325
42	0x3dbd8e27	0.09255629
43	0xbd94de97	-0.07269018
44	0xbd51f76a	-0.051261343
45	0x3bd85553	0.0066019683
46	0xbd565ab4	-0.052332595
47	0xbda9c80d	-0.0829011
48	0xbd031dc9	-0.032010827
49	0x3c806ee2	0.015677873
50	0x3c414fb8	0.011798792
51	0xbddf2551	-0.108957894
52	0xbd1c2b9a	-0.03812752
53	0x3e31e66a	0.17373052
54	0xbe25b518	-0.16182363
55	0x3c0aea2b	0.008478682
56	0xbd5f2fca	-0.054488935
57	0x3d96e86c	0.0736855
58	0x3dac09d0	0.08400309
59	0xbcaf5850	-0.021404415
60	0xbdf9de70	-0.1220063
61	0x3ddae052	0.10687317
62	0x3e003db5	0.1252354
63	0x3d07b404	0.03313066
64	0x3c95ae8e	0.01827171
65	0x3b1970fb	0.002341329
66	0xbc9c9f0f	-0.019118814
67	0x3cb55dfd	0.022139544
68	0x3c776eae	0.015102072
69	0xbd1018ba	-0.03517983
70	0x3d0117da	0.031516887
71	0xbe16890b	-0.14700715
72	0x3defc9cc	0.117084116
73	0x3daf3116	0.08554284
74	0xbe15b394	-0.14619285
75	0xbd654a04	-0.05597879
76	0x3e18dad3	0.14927225
77	0x3d51c1e6	0.051210307
78	0xbc45bc34	-0.012068797
79	0xbdce6e9f	-0.10079693
80	0x3d92f8df	0.07176375
81	0x3dc83b06	0.09776883
82	0xbd84f72f	-0.06492459
83	0x3d5b58e6	0.053551577
84	0x3dff312e	0.12460552
85	0xbdb9ddb4	-0.0907549
86	0xbda69ade	-0.08135007
87	0x3da5bcee	0.08092676
88	0xbdc5ac78	-0.096520364
89	0x3d8ce0b7	0.068787985
90	0xbb837102	-0.0040112743
91	0xbb97f0c4	-0.004636856
92	0xbdd94fe4	-0.10610941
93	0xbcde9699	-0.02717142
94	0x3d902889	0.070389815
95	0xbce0f519	-0.027460622
96	0xbdd883dc	-0.10572025
97	0x3d44dc17	0.048061457
98	0x3dae799b	0.08519288
99	0x3dda73f5	0.10666648
100	0x3e1bd7ac	0.15218991
101	0x3d099c03	0.03359605
102	0xbdec2249	-0.11529977
103	0xbdcc25f2	-0.09968175
104	0x3d99cdd2	0.0750996
105	0xbdbc9106	-0.092073485
106	0xbd8be007	-0.06829839
107	0x3befd5b3	0.007319176
108	0x3d9644e6	0.0733736
109	0x3b07e791	0.002073739
110	0xbd13e63a	-0.036108233
111	0x3e23a5df	0.15981244
112	0xbdbb83d9	-0.09156007
113	0xbcc67e67	-0.024230195
114	0xbb27562b	-0.0025533538
115	0xbdb5130d	-0.08841524
116	0xbc664839	-0.014055305
117	0xbd992215	-0.07477204
118	0xbd83eb3e	-0.06441353
119	0x3bce85fc	0.0063025933
120	0xbb8e1ee0	-0.0043371767
121	0xbe341c95	-0.17589028
122	0xbdcb5091	-0.09927476
123	0x3da8604e	0.08221494
124	0x3e0e6992	0.1390746
125	0xbbc82cd0	-0.0061088577
126	0xbe29a312	-0.16566113
127	0x3e05f05f	0.13079976
128	0x3d84ae51	0.06478561
129	0x3df1874b	0.11793383
130	0xbdbbaac1	-0.09163428
131	0xbcce091f	-0.025150834
132	0x3e2b1172	0.16705874
133	0x3e21a995	0.15787347
134	0xbdb2a888	-0.08723551
135	0x3daa1f1b	0.08306714
136	0x3d89f473	0.06736078
137	0xbdb960bf	-0.09051656
138	0xbdfa8d8b	-0.122340284
139	0xbe296b02	-0.16544726
140	0x3d9ebc19	0.077507205
141	0xbdc6453c	-0.09681174
142	0x3daef5f1	0.08543003
143	0x3e2de664	0.16982418
144	0x3e3ecff9	0.18634023
145	0x3bf4eaf6	0.0074742986
146	0xbd4394d6	-0.047749363
147	0x3e28e549	0.16493715
148	0xbde9a05e	-0.11407541
149	0xbe04a9bf	-0.12955378
150	0x3b947787	0.0045308503
151	0x3d5ad624	0.053426877
152	0x3c154040	0.009109557
153	0xbcd46ace	-0.025929835
154	0xbcc5b9cc	-0.024136446
155	0xbdaedd76	-0.08538334
156	0xbe1d547b	-0.15364258
157	0x3dc95598	0.09830779
158	0x3d4b37cf	0.04961377
159	0x3d80089d	0.06251643
160	0xbc4f19e5	-0.012640451
161	0xbdddb461	-0.1082542
162	0xbdf109a8	-0.1176942
163	0xbd28c447	-0.04120281
164	0xbdc6c978	-0.09706396
165	0x3d21b3a1	0.039477948
166	0xbe51ac1c	-0.20475811
167	0x3c9a58d7	0.01884119
168	0xbcbdf185	-0.023186455
169	0xbddce94b	-0.107866846
170	0x3d474a5b	0.048654895
171	0x383e797f	4.5412682e-05
172	0x3e126335	0.14295657
173	0x3d3bb018	0.045822233
174	0xbdfc85ed	-0.12330232
175	0xbd505c59	-0.05086932
176	0x3d9f8144	0.07788327
177	0x3e118369	0.14210285
178	0xbd5a8649	-0.05335072
179	0x3de083b9	0.10962624
180	0x3bc13f8b	0.0058974675
181	0xbd010275	-0.031496484
182	0x3b20a6a6	0.0024513393
183	0xbdfecd3d	-0.1244149
184	0x3d35bff4	0.044372514
185	0x3e11aa81	0.14225198
186	0x3da46102	0.08026315
187	0xbdc85492	-0.097817555
188	0x3dc6dc0c	0.09709939
189	0x3d98cf85	0.07461456
190	0x3e09afa5	0.1344591
191	0xbe25394d	-0.1613514
192	0x3bec0c64	0.0072036255
193	0xbc2e0c8c	-0.010623109
194	0xbe1ad8e6	-0.15121803
195	0xbd541caa	-0.05178515
196	0xbcc7c982	-0.024388079
197	0x3dfa1eb8	0.122128904
198	0xbe241c4d	-0.16026421
199	0xbe086c66	-0.133226
200	0x3db0cf75	0.08633319
201	0xbdc65051	-0.09683288
202	0xbc77cdbc	-0.0151247345
203	0x3e01f731	0.12691952
204	0xbd878d2a	-0.06618722
205	0xbd6b905a	-0.05751071
206	0xbe0159b3	-0.12631874
207	0xbbf974de	-0.0076128086
208	0xbba802af	-0.005127273
209	0x3e09bebc	0.13451666
210	0xbe45036c	-0.19239587
211	0x3c5820dc	0.013191428
212	0xbd8b4562	-0.06800343
213	0xbe791e89	-0.24328054
214	0xbc596aec	-0.013270121
215	0x3d7fcb04	0.06244947
216	0x3d767ce4	0.0601777
217	0x3d76570e	0.060141616
218	0x3c9805ae	0.018557396
219	0x3d738c56	0.059460007
220	0xbc3301a6	-0.010925686
221	0xbc8d8247	-0.017274035
222	0x3e1c1a84	0.1524449
223	0x3d0a1b84	0.033717647
224	0xbe2b5f3d	-0.1673555
225	0x3daccd1f	0.08437561
226	0xb9aa41cc	-0.0003247395
227	0xbe19684e	-0.14981195
228	0x3bcd49eb	0.006264915
229	0x3e3d6ac7	0.18497764
230	0x3be2ced8	0.0069216304
231	0x3d0f453b	0.034978133
232	0xbd88db52	-0.06682457
233	0x3d36c8b9	0.044625018
234	0x3e1e4091	0.15454318
235	0x3e1b6c7d	0.15178104
236	0xbdb37c84	-0.08763984
237	0xbd696a46	-0.056986116
238	0x3cceaebe	0.025229808
239	0x3dac7ce4	0.084222585
240	0x3dd48e01	0.103786476
241	0xbd078cae	-0.033093147
242	0x3d8b11d6	0.06790511
243	0x3df2ae2b	0.11849626
244	0x3d8a72b5	0.0676016
245	0xbca0502a	-0.019569475
246	0x3e08fe39	0.13378228
247	0xbdc684b3	-0.09693279
248	0xbccb833c	-0.02484285
249	0x3e1779a0	0.1479249
250	0xbd84fe49	-0.064938135
251	0xbe0fe111	-0.140507
252	0xbcc066ba	-0.023486484
253	0xbdd3233d	-0.103094555
254	0x3e096086	0.13415727
255	0x3df0d1d1	0.11758769

lstm.weight_hh_l0_reverse f4 [160, 40]
0	0x3e085a8a	0.13315788
1	0x3e198616	0.14992556
2	0x3d580e33	0.052747916
3	0x3dca98fd	0.098924614
4	0xbd3923c5	-0.045200128
5	0xbdfafcd9	-0.12255258
6	0xbc6e0c53	-0.0145293055
7	0x3b5ad88e	0.0033393237
8	0x3e12c927	0.14334546
9	0x3db99f0f	0.09063541
10	0xbd61e563	-0.0551504
11	0xbceeec2a	-0.029165346
12	0xbd71bbf6	-0.059017144
13	0xbddb9d06	-0.10723309
14	0x3da9c0c7	0.082887225
15	0x3c1d820d	0.009613526
16	0x3e1db63e	0.15401551
17	0xbc8f94a7	-0.017526938
18	0x3d8ae042	0.06781055
19	0xbd0631d4	-0.032762364
20	0x3cb0c410	0.021577865
21	0x3da8b833	0.08238258
22	0xbe102640	-0.14077091
23	0xbd021fd2	-0.031768627
24	0x3e081a91	0.13291384
25	0x3e3280b6	0.17431912
26	0xbda569c2	-0.08076812
27	0xbcf4485d	-0.029819662
28	0x3e05fd08	0.13084805
29	0xbccedda4	-0.02525217
30	0xbd2aa867	-0.041664507
31	0xbe351325	-0.17683084
32	0x3cb0887e	0.02154946
33	0x3dbbc8bb	0.09169146
34	0xbd824f66	-0.063628
35	0x3cba3d6f	0.022734372
36	0xbbe88582	-0.0070959935
37	0xbdfcbc28	-0.123405755
38	0xbdb3e4fe	-0.08783911
39	0x3e1fbc98	0.15599287
40	0x3e3fa83c	0.1871652
41	0xbccf07af	-0.025272219
42	0xbda473c6	-0.080298945
43	0xbd9cb25b	-0.07651206
44	0xbe164d8d	-0.14678021
45	0xbdd64ad8	-0.10463494
46	0x3e179f2d	0.14806814
47	0x39f22689	0.00046186548
48	0xbe136d02	-0.14397052
49	0x3dffaa24	0.124836236
50	0x3da77f38	0.08178562
51	0x3d9724e7	0.073800854
52	0x3d110f9e	0.035415284
53	0x3c0f3b5b	0.008742179
54	0xbda53c1c	-0.080681056
55	0xbdd50d14	-0.10402885
56	0x3e26ccb8	0.16289032
57	0xbd4a5c8e	-0.049404673
58	0x3ccfdf3d	0.025375003
59	0x3d36dcbd	0.044644106
60	0xbda05108	-0.078279555
61	0xbdeb20f3	-0.11480894
62	0xbe05deef	-0.13073324
63	0xbc47c387	-0.012192613
64	0xbc9775a5	-0.018488714
65	0x3e00041b	0.12501566
66	0x3d3fad1f	0.04679596
67	0xbb4b10a7	-0.0030985267
68	0x3e12f5c1	0.1435156
69	0x3dd54480	0.10413456
70	0xbe066464	-0.13124233
71	0x3e055870	0.13022017
72	0x3db7df04	0.08978084
73	0x3e2edba0	0.17075968
74	0x3d6ebbf9	0.058284733
75	0xbe0b65aa	-0.13613
76	0xbe035811	-0.12826563
77	0x3c15b49f	0.009137302
78	0x3e006f79	0.12542523
79	0xbb395b5f	-0.0028283221
80	0x3cd92fd7	0.02651207
81	0xb9a387ae	-0.00031190872
82	0x3d5fd1a5	0.054643292
83	0xbd6d33cb	-0.05791072
84	0x3dc8e65e	0.09809564
85	0x3d4a1ae4	0.04934205
86	0xbce19723	-0.027537888
87	0xbe6a34de	-0.2287173
88	0xbd94b67c	-0.07261369
89	0xbdb3920a	-0.08768089
90	0x3e1b1e97	0.15148388
91	0x3d91ad33	0.07113113
92	0xbdd2aea6	-0.10287218
93	0x3dc6bb7a	0.09703727
94	0x3d2243d9	0.039615486
95	0x3e4ca73c	0.1998567
96	0xbdd75a67	-0.1051529
97	0xbdb1759c	-0.0866501
98	0xbdd2986c	-0.102829784
99	0xbd9c6c82	-0.07637884
100	0x3e5188ec	0.20462388
101	0xbd6b9d6a	-0.05752317
102	0xbd1887af	-0.037238773
103	0xbdf18981	-0.11793805
104	0x3d38aee0	0.04508865
105	0x3df87f02	0.121336
106	0x3d921cd7	0.07134407
107	0xbe34ee45	-0.17669018
108	0xbc8c745f	-0.017145334
109	0x3e3ba1e2	0.18323472
110	0xbe260f03	-0.16216664
111	0xbdcae009	-0.099060126
112	0x3cf28e84	0.029608972
113	0x3dea878b	0.11451634
114	0xbd69d0d9	-0.05708394
115	0x3d3bd0fd	0.045853604
116	0x3dc403cf	0.09571039
117	0xbcf8011a	-0.030273963
118	0xbdd63885	-0.10459999
119	0x3cdb73aa	0.026788551
120	0x3d7ad3fa	0.061237313
121	0x3d547829	0.051872406
122	0xbdc463c5	-0.09589342
123	0xbd971e4f	-0.07378828
124	0x3e352064	0.17688137
125	0x3dd10eca	0.10207899
126	0xbd09722a	-0.03355614
127	0xbdea9ca2	-0.114556566
128	0x3c71bab3	0.014753985
129	0x3db628b1	0.0889448
130	0xbccb8b1a	-0.024846602
131	0xbb5e1b46	-0.0033890768
132	0xbb791bfd	-0.0038011067
133	0xbca732a7	-0.020409895
134	0x3e533dc6	0.20629033
135	0x3e62bd32	0.22142485
136	0xbd1576e8	-0.03649035
137	0x3da381f0	0.07983768
138	0xbe1aa6b0	-0.15102649
139	0x3db19c3e	0.08672379
140	0x3d33bcdf	0.043881293
141	0x3cad54d8	0.02115862
142	0xbe03a50e	-0.12855932
143	0xbe129193	-0.14313345
144	0xbca8b9bf	-0.020596383
145	0x3da75c9c	0.08171961
146	0x3db467e9	0.08808882
147	0xbe1fd689	-0.15609182
148	0xbc4656e2	-0.012105675
149	0xbda2eb87	-0.079550795
150	0xbe32112d	-0.17389365
151	0x3d90e9de	0.070758566
152	0xbd3633d7	-0.044483032
153	0x3c83accf	0.016073612
154	0xbe470655	-0.19436009
155	0xbccd72d6	-0.025079172
156	0x3ccc19b4	0.0249146
157	0xbd2388e5	-0.039925475
158	0xbd9a0cc3	-0.07521965
159	0x3e1b34bc	0.15156835
160	0xbd990e5b	-0.07473441
161	0x3dacb91f	0.084337465
162	0x3d7acfbe	0.061233275
163	0xbceb57d7	-0.028728409
164	0xbc8dd72a	-0.017314512
165	0xbe0ae6ea	-0.13564649
166	0xbe1622c8	-0.14661705
167	0xbca100eb	-0.019653758
168	0xbe0f01c2	-0.13965514
169	0x3d05a60e	0.032629065
170	0x3e01fbb9	0.12693681
171	0x3e09b9b0	0.1344974
172	0x3d46aebe	0.04850649
173	0xbd8e214f	-0.06939947
174	0x3e12abfe	0.14323422
175	0x3dd81617	0.10551088
176	0x3b4adc37	0.0030954012
177	0x3e100b24	0.1406675
178	0xbd8810b6	-0.06643812
179	0xbc4b4b62	-0.012408109
180	0x3ded3eb9	0.11584229
181	0xbdd19110	-0.102327466
182	0x3cfc415f	0.03079289
183	0x3e1785d3	0.14797144
184	0xbe102798	-0.14077604
185	0xbd86c43c	-0.065803975
186	0xbd9480a7	-0.07251101
187	0xbc90ca28	-0.01767452
188	0xbb81754b	-0.00395075
189	0xbbae3964	-0.0053169
190	0x3bba7ef6	0.0056914045
191	0x3dd20c7d	0.10256288
192	0xbde8a291	-0.11359132
193	0x3d8deab4	0.06929532
194	0x3dd46e56	0.103726074
195	0xbd62ae46	-0.05534198
196	0x3cc5191f	0.02405983
197	0x3e0ff9f4	0.14060193
198	0x3dd4914f	0.10379278
199	0xbd546487	-0.051853683
200	0x3da15eb2	0.0787939
201	0x3d1c2143	0.03811766
202	0xbe3053a7	-0.17219411
203	0xbe09e9d3	-0.13468103
204	0x3dbe9bb4	0.09307042
205	0x3d9299de	0.07158254
206	0x3d54e6fc	0.051978096
207	0xbce9700d	-0.028495813
208	0xbde1944d	-0.11014614
209	0xbd8c041a	-0.0683672
210	0xbc937ecb	-0.018004796
211	0xbc2d9076	-0.010593524
212	0xbcca2100	-0.024673939
213	0x3dcd629e	0.10028575
214	0xbe28e7e4	-0.16494709
215	0x3d9990a0	0.07498288
216	0xbd755a72	-0.05990071
217	0x3dd8d62d	0.10587726
218	0x3e128056	0.14306769
219	0x3e304a2b	0.17215793
220	0x3b6cdcd9	0.0036142378
221	0x3bff112b	0.007784029
222	0x3c0ac4ed	0.008469802
223	0xbdd95973	-0.10612764
224	0xbab36e10	-0.0013689417
225	0xbc8633aa	-0.016382057
226	0xbd7f3a76	-0.062311612
227	0xbdd6dc46	-0.104912326
228	0x3e20ac26	0.1569067
229	0x3d6f6d9c	0.05845414
230	0xbb409e5b	-0.0029391262
231	0x3df538ff	0.11973762
232	0xbd7b14ff	-0.06129932
233	0x3caabe95	0.02084283
234	0xbdf9875a	-0.121840194
235	0x3bedd415	0.007257948
236	0xbd25cae8	-0.04047671
237	0x3e1e01d2	0.15430382
238	0x3df5a8e1	0.11995102
239	0x3cdc0653	0.026858484
240	0x3dcbbfda	0.09948702
241	0xbcf62894	-0.030048646
242	0xbdfe0bb6	-0.124045774
243	0x3e1b7e4a	0.15184894
244	0x3dd885ea	0.10572417
245	0xbd292937	-0.04129907
246	0xbc495b5b	-0.012289847
247	0x3e0832db	0.1330065
248	0x3e023d89	0.12718786
249	0x3e19715d	0.14984651
250	0x3da9389a	0.08262749
251	0x3de68387	0.112555556
252	0xbc3e4a27	-0.011614359
253	0x3d225a7a	0.039637066
254	0xbb8cc5a2	-0.0042960206
255	0x3d0d8f42	0.03456045

lstm.bias_ih_l0_reverse f4 [160]
0	0x3e1968e5	0.1498142
1	0x3c6e4e43	0.014545026
2	0x3e2e5234	0.17023546
3	0xbd82da77	-0.06389325
4	0xbe06c15e	-0.13159701
5	0xbe1909d3	-0.14945154
6	0xbda1d0db	-0.07901164
7	0x3e3e5e39	0.1859063
8	0xbd9d8852	-0.07692017
9	0x3e1c41f9	0.15259542
10	0x3dfcfb5c	0.123526305
11	0xbd9f7261	-0.07785488
12	0x3e3258cd	0.17416687
13	0xbd8f3367	-0.06992226
14	0x3e3346e7	0.17507516
15	0x3d732a9e	0.059366815
16	0xbce7527e	-0.028237578
17	0xbc9165e2	-0.017748777
18	0x3dbb8f36	0.09158175
19	0x3e12f29e	0.14350364
20	0x3dfb8d51	0.12282813
21	0x3e2bf80d	0.16793843
22	0x3d371c60	0.044704795
23	0xbd0d530a	-0.03450302
24	0x3d909c58	0.0706107
25	0x3d2ccca4	0.042187348
26	0x3e19a5e4	0.15004689
27	0x3da78dcd	0.08181343
28	0x3d243314	0.040087774
29	0x3cc7dd61	0.024397554
30	0x3df4a8b3	0.11946239
31	0x3dc65308	0.09683806
32	0x3e0e310a	0.13885894
33	0xbd4f3d47	-0.050595548
34	0xbd4e7ff6	-0.050415
35	0xbd373d36	-0.04473611
36	0x3e3bfab7	0.18357359
37	0xbd41608e	-0.047211222
38	0x3e0d753a	0.1381425
39	0xbd821b1c	-0.06352827
40	0x3d2f70df	0.04283225
41	0xbdf3329e	-0.11874889
42	0x3dbe2d6d	0.09286008
43	0x3c5e8ad5	0.013582905
44	0x3cc830f8	0.024437413
45	0x3d9355ac	0.07194075
46	0x3ddfaa5b	0.109211646
47	0x3e1b4a84	0.15165144
48	0xbce99a3a	-0.028515924
49	0xbe020db6	-0.12700543
50	0x3e644a65	0.22294004
51	0xbe0e4e2b	-0.13897006
52	0x3d77cde5	0.06049909
53	0xbd5309c3	-0.05152298
54	0xbc44e03a	-0.01201635
55	0x3db1cb41	0.08681346
56	0xbde051fa	-0.10953136
57	0x3d8a7b7c	0.06761834
58	0x3dd51441	0.10404254
59	0x3dfde038	0.12396282
60	0x3e39af7b	0.18133347
61	0xbd5c8ba9	-0.053844128
62	0xbda11c4a	-0.07866724
63	0x3e01afca	0.12664714
64	0x3dbcbc1b	0.09215566
65	0x3df18f9d	0.1179497
66	0x3cc7acba	0.024374355
67	0xbd8825e9	-0.06647856
68	0x3db7aa9d	0.08968089
69	0x3e0eeb24	0.13956887
70	0xbc40cf45	-0.011768167
71	0x3cd2cf4b	0.02573361
72	0x3b90837f	0.004410207
73	0xbe089c30	-0.13340831
74	0xbd3efeb8	-0.046629637
75	0x3c9b0a1b	0.018925717
76	0x3d20f6f0	0.039297998
77	0x3e2da489	0.16957296
78	0x3e36abf8	0.17839038
79	0xbc383905	-0.011244063
80	0xbc0643b6	-0.0081948545
81	0x3e089044	0.13336283
82	0x3d73d91c	0.059533224
83	0x3d046421	0.032322053
84	0x3e0fd5db	0.14046423
85	0x3c7ddad7	0.01549407
86	0x3e1b4b4c	0.15165442
87	0xbd346679	-0.044043038
88	0x3ccc7577	0.024958355
89	0x3df11764	0.117720395
90	0x3d58bb68	0.0529131
91	0x3cfe25ab	0.03102382
92	0xbe16b0af	-0.14715837
93	0x3e508eb1	0.20366932
94	0x3df4e5a7	0.11957865
95	0x3e308e32	0.17241743
96	0xbd6d6a27	-0.057962563
97	0x3d84b008	0.06478888
98	0x3d51e802	0.05124665
99	0xbce2bb41	-0.02767718
100	0x3de617df	0.11235022
101	0xbd28a169	-0.041169558
102	0xbe401034	-0.18756181
103	0xbde6fe0e	-0.11278926
104	0x3db04c98	0.08608359
105	0x3e005050	0.12530637
106	0x3d4ae33f	0.049533125
107	0xbe1a1fcb	-0.1505119
108	0xbd7a1b70	-0.061061323
109	0x3debcb81	0.11513425
110	0xbcc174b7	-0.023615224
111	0x3d5e7e56	0.054319702
112	0x3dad6715	0.08466927
113	0xbdf076af	-0.11741387
114	0xbd7d8e2b	-0.06190316
115	0xbd82c53d	-0.063852765
116	0xbe25d883	-0.16195874
117	0xbd8cb861	-0.06871105
118	0xbd2ab64d	-0.04167776
119	0x3d24903b	0.04017661
120	0x3c906290	0.017625123
121	0xbcc8643f	-0.024461864
122	0x3e12d515	0.14339097
123	0x3e234b1c	0.1594662
124	0x3e0443e0	0.12916517
125	0x3df56938	0.119829595
126	0x3dc61fa2	0.09674002
127	0x3e26b25c	0.16278976
128	0xbbf89b36	-0.007586862
129	0xbe08ddb3	-0.13365822
130	0x3cfbadc6	0.03072251
131	0x3e0f4a02	0.13993075
132	0x3d34d8c6	0.044152044
133	0xbda0fa66	-0.0786026
134	0xbc2f0cec	-0.010684233
135	0xbd5a6298	-0.053316683
136	0xbe08b2d9	-0.13349475
137	0xbcc5b714	-0.02413515
138	0x3e03747a	0.12837401
139	0x3dc7e1e3	0.09759881
140	0x3e074f87	0.13213931
141	0x3e33b07f	0.17547797
142	0xbdf04f19	-0.11733837
143	0x3db72d2d	0.089441635
144	0x3e300146	0.17187986
145	0x3df03d1f	0.11730408
146	0x3e20ad2e	0.15691063
147	0xbc4a40a7	-0.012344516
148	0xbc077435	-0.008267452
149	0xbdf674e0	-0.12034011
150	0xbdde426c	-0.10852513
151	0xbd198e36	-0.03748914
152	0x3d9e0ae0	0.07716918
153	0xbe161f22	-0.14660314
154	0x3e000fde	0.12506053
155	0xbe1ea0ee	-0.15491077
156	0xbda31cde	-0.0796449
157	0x3db9157c	0.09037301
158	0xbdd88ad4	-0.10573354
159	0xbdc2f757	-0.095198326
