Deeploc/model_for_visulization.pth (torch_old, 280908 bytes, 19 tensors)

weight f4 [21, 20]
000000 82 d4 87 bf a5 0b f6 3e d7 86 a6 be c7 1c 53 bf
       -1.0611727 0.4805576 -0.3252475 -0.82465786
000010 b3 a9 91 be c2 0a 21 3f fd 85 76 3f c2 8a 8b bf
       -0.28449783 0.6290704 0.962982 -1.090172
000020 d1 d8 23 bf 33 cc 94 3f 38 24 ff bf a0 03 ce bf
       -0.6400271 1.1624817 -1.9932928 -1.6094856
000030 73 f6 14 bf 75 bf 87 be 2c b0 c3 3e b7 b4 79 3e
       -0.5818855 -0.26513258 0.38220346 0.24385343
000040 4f 51 94 3f 31 47 a5 be 86 89 92 bf 33 85 58 bf
       1.1587313 -0.32280877 -1.1448219 -0.84578246
000050 ce d2 3e bf 3a 6c 04 3e 45 66 b3 bf a8 6a 9d 3e
       -0.7454041 0.1293191 -1.4015585 0.30745435
000060 29 a2 98 bf c2 9d c4 be 61 60 66 bf a5 e8 75 be
       -1.1924487 -0.3840161 -0.8999081 -0.24014528
000070 85 ea 22 3f 8a b8 bd bf 98 b9 a0 3e d4 09 6d 3f
       0.636391 -1.4821942 0.31391597 0.9259312
000080 19 cc 08 c0 55 c6 80 bf 92 8d 55 3f 33 79 4b bf
       -2.1374571 -1.0060526 0.83419144 -0.7948181
000090 af 6b 0f 3e 7d 29 dd be b9 82 8b bf 67 7b 82 be
       0.14005922 -0.43195716 -1.0899268 -0.25484774
0000a0 a8 7c a7 3e c9 f2 45 3f 24 a8 c9 bf 20 2c aa be
       0.32712293 0.77323586 -1.5754437 -0.3323679
0000b0 19 7e b1 be 0e 32 bf be 36 aa 34 bd 11 c3 3d bf
       -0.34666517 -0.37342876 -0.04410764 -0.7412577
0000c0 35 0e 1f bf 27 f0 84 3e 24 53 db bf a3 25 09 40
       -0.62131053 0.25964472 -1.7134748 2.1429222
0000d0 bb 80 44 be 60 95 60 3e d6 e4 cc bf 02 eb 81 3f
       -0.19189732 0.21931982 -1.6007335 1.0149844
0000e0 9a 36 f3 be 01 29 20 be 3a d3 f0 be c6 42 21 3f
       -0.47502595 -0.15640642 -0.47036153 0.62992513
0000f0 13 48 61 bf 08 64 a7 3f 00 75 a2 3e 68 14 8c 3f
       -0.880006 1.3077402 0.3172989 1.0943727
000100 d1 9e 44 3e 94 96 9b bd c7 e8 1f 3f 18 70 40 3f
       0.19201209 -0.0759708 0.62464565 0.7517104
000110 d2 e4 38 bf eb c8 a5 3f b8 49 01 c0 18 42 34 bf
       -0.7222415 1.295194 -2.0201244 -0.7041335
000120 c0 e3 42 be 35 04 9d 3f 79 6c a4 be 55 bf 06 3f
       -0.19032192 1.2266909 -0.32114008 0.526357
000130 4e a8 53 be fe ba 67 3e 75 ae a1 3e f1 dc 85 3f
       -0.20669672 0.22629926 0.31578413 1.0458051
000140 10 e2 9d be 1b 72 e8 bf 04 1f ac 3e d0 0f d8 be
       -0.30836535 -1.8159822 0.33617413 -0.42199564
000150 19 a3 7d 3f 3e d1 2d bf 81 97 90 bf dc 1e 18 3f
       0.9907699 -0.67897403 -1.1296235 0.5942209
000160 fb 12 60 bf f9 78 5a bd af 31 45 be bc 08 ea bd
       -0.8752896 -0.053338025 -0.19257234 -0.11427447
000170 29 38 86 be ca 91 05 be 34 9b 5c bf 81 a5 d3 be
       -0.26214722 -0.13043895 -0.8617432 -0.41337207
000180 05 2e 57 bf fa 99 41 3d 93 fa 04 3f f1 69 45 3f
       -0.84054595 0.047265984 0.51944846 0.7711478
000190 88 26 39 be ea 93 6e 3f 9e 11 1a bf 76 c6 40 bf
       -0.18081105 0.9319445 -0.6018313 -0.7530283
0001a0 e8 e3 a2 3e dc 30 9a 3e 7d 28 c0 be 68 b5 2c 3f
       0.31814504 0.30115402 -0.3753089 0.67464304
0001b0 40 77 d1 3f da a5 2d 3e d9 62 1e bf 7f 2a 22 c0
       1.6364517 0.16957799 -0.6186958 -2.5338438
0001c0 4f e1 b5 3f a0 a1 0c c0 a5 a4 d4 bf 32 65 44 bf
       1.4209384 -2.1973648 -1.6612746 -0.7671691
0001d0 01 69 dd be 35 95 a1 be 15 32 49 bf 6a 20 bb 3f
       -0.43244174 -0.31559148 -0.78592044 1.4619267
0001e0 84 2c ad 3f 8d 8e 94 bf 29 85 ae be 3b f4 82 3f
       1.352921 -1.1606003 -0.34085968 1.0230783
0001f0 85 f4 89 be 7c 24 88 3f 5a 6d 7a 3f 25 48 ec be
       -0.26944366 1.0636134 0.9782311 -0.46148792
000200 3a 76 44 bd cf e3 2e bf 4d f4 13 be 61 40 b3 3d
       -0.047964312 -0.6831636 -0.14448662 0.08752514
000210 95 53 84 bb b9 d1 4b bf 6a b7 de 3f f0 5d 27 3e
       -0.004038284 -0.79616886 1.7399724 0.16344428
000220 69 b9 4c 3f 28 80 4b 3f 4c bc ef bc bc 01 93 be
       0.79970413 0.79492426 -0.029264592 -0.2871226
000230 22 25 1e bf 71 08 0b bf fc 46 bf bd 60 eb ba be
       -0.6177541 -0.54309756 -0.09339711 -0.36507702
000240 c1 c9 fc be ca a5 df 3f bc a9 a9 bd 52 a6 a2 3f
       -0.49372676 1.747247 -0.082843274 1.2707007
000250 3a f7 63 bf fb 70 55 3f 44 ea dd bf 1d 8a 97 3f
       -0.8904911 0.8337552 -1.7337117 1.1839024
000260 09 e0 1c bf 3e bf d0 3e 13 89 49 3e 71 6b 33 3f
       -0.6127935 0.40770906 0.19681196 0.7008582
000270 44 8e c3 3e 32 89 18 bf 67 e0 53 bf 06 32 dc 3e
       0.38194478 -0.59584343 -0.82764286 0.43006915
000280 b4 c3 54 3f 79 7d 65 3f ee 7f 73 be c0 0a 96 be
       0.8311112 0.8964458 -0.2377927 -0.29305077
000290 4d 75 a4 3f 09 d4 1a 3e 9b 27 82 bf a7 6d af 3f
       1.2848297 0.15119947 -1.0168337 1.3705338
0002a0 8d 7e 89 be ad 62 9e 3d 61 08 82 3e a8 ff e3 3f
       -0.26854363 0.07733665 0.25397018 1.7812395
0002b0 e3 49 9f 3f ec dd a5 3c 78 8e 8c bf ff 66 4c 3e
       1.2444423 0.020247422 -1.0980978 0.19961165
0002c0 e5 fa 14 bd 5d 6c e8 bc 98 fb dc 3e f1 0e 99 3e
       -0.036372084 -0.028371984 0.431607 0.29894212
0002d0 4f 27 ee 3c 26 01 d3 3e c4 86 f9 be 13 cb b2 3f
       0.029071478 0.41211814 -0.4873563 1.3968223
0002e0 6c f5 10 be 3f 87 a1 bf 94 e5 cc 3e 10 43 cf be
       -0.14156121 -1.2619399 0.40018904 -0.40480852
0002f0 ff 86 3a bd 75 4e 42 3f f2 56 8b bf 6d 5f 40 bf
       -0.0455389 0.75900966 -1.0885909 -0.7514561
000300 56 73 c3 3e 0b 3f 8f 3e 25 19 2a 3f 85 7f ac 3f
       0.38173932 0.27977785 0.6644462 1.3476416
000310 af ce 9f be d6 78 5d bf 43 4f 98 be ed 0d 48 be
       -0.31212375 -0.86512506 -0.29747972 -0.19536562
000320 19 de 3a bf f3 14 80 bf d1 cd 3c bf 40 9d e0 3e
       -0.72995144 -1.0006393 -0.7375155 0.43869972
000330 87 e8 53 3f 32 c4 0a c0 51 05 b8 bf f4 60 0b bf
       0.82776684 -2.1682248 -1.4376622 -0.54444814
000340 4a 23 0f be 25 27 88 3f 46 bd 48 bf de 84 ab 3e
       -0.13978305 1.0636946 -0.7841381 0.33499807
000350 d6 93 0e 3e 6d 74 82 3f b6 01 36 bf 87 ec 1d c0
       0.13923582 1.019178 -0.7109636 -2.4675615
000360 5d d1 81 be 85 1a f3 be 40 50 d8 3f 84 e5 f7 3e
       -0.25355044 -0.4748117 1.689949 0.48417294
000370 56 6d 97 3f 9e d1 a2 bf e1 3b c3 bf c1 ce 50 3d
       1.1830242 -1.272022 -1.5252649 0.050978426
000380 ad 2c 3a bf 81 89 8b 3e a9 fe 57 3e f2 67 4f 3e
       -0.7272442 0.27253345 0.21093239 0.20254496
000390 06 19 ed 3c f6 2e 00 c0 ac 5e 36 be ba 71 a1 bf
       0.028942596 -2.0028663 -0.17809552 -1.2612832
0003a0 da 03 94 3f 56 bd c1 3e f2 83 3c 3f c6 e9 d6 be
       1.1563675 0.37839764 0.7363883 -0.4197523
0003b0 c0 61 e9 3e 92 2d 8d bf 55 fe c2 3e 51 f5 5d 3e
       0.4558239 -1.1029532 0.38084665 0.21675612
0003c0 a9 c2 95 3f 72 d3 09 3f 0c bc 0d 3f bc 77 22 3e
       1.170003 0.53838265 0.5536506 0.15865988
0003d0 6a 76 0c bf 9c b8 a8 bf 36 f5 9d 3f 79 ea ff 3e
       -0.54868186 -1.3181338 1.2340457 0.49983576
0003e0 e3 a4 39 3f b8 44 16 bf 53 3f b5 bf e0 93 39 3f
       0.7251722 -0.58698606 -1.415995 0.72491264
0003f0 d9 a0 00 40 94 ba 71 be 7d bc 9c bf 97 6a a7 be
       2.0098174 -0.2360633 -1.2245022 -0.3269851

weight_ih_l0 f4 [160, 20]
000000 4e 9d 91 3d 62 6e ac bd 80 2b 95 3a 54 4c 22 3d
       0.071100816 -0.08419491 0.0011380762 0.039623573
000010 7b 45 1b 3e a2 64 a8 bd 5a 35 e0 3d 86 4a d1 3d
       0.15163223 -0.08222319 0.10947676 0.10219292
000020 10 18 28 bc 13 46 b9 bd 90 99 2b 3c ca e1 d9 3d
       -0.010259643 -0.09046569 0.010473624 0.10638769
000030 5b c8 0d 3e 84 5f b0 3d 68 67 aa 3d 3e 96 01 be
       0.13845961 0.08611968 0.083205044 -0.12654969
000040 b6 23 f6 bd c6 d5 99 3d 77 08 90 bd d0 c4 58 3c
       -0.1201853 0.07511477 -0.070328645 0.0132305175
000050 32 5a 8f 3d 33 f5 b8 bd 40 00 26 3b 5e cb c6 3d
       0.06999625 -0.09031143 0.002532974 0.09706758
000060 58 44 bc bc da 30 17 bd 79 90 20 3e 8b 17 0b 3e
       -0.022981808 -0.036911823 0.15680112 0.135832
000070 85 8d a4 bd d6 ce 98 3d 94 38 6c 3d a5 a0 96 bd
       -0.08034805 0.07461326 0.057671145 -0.07354859
000080 68 6c 65 3d 9d 02 06 3e 10 26 58 3c 3c 91 a4 3d
       0.056011587 0.13086934 0.013192669 0.08035514
000090 82 c7 fd 3d 60 4e 8d bc 68 87 96 bd 5a fb 19 bd
       0.12391569 -0.017249286 -0.073500454 -0.037593223
0000a0 a8 83 38 bd 5b ba 0f be 32 fe db 3d ff b6 21 be
       -0.045047432 -0.14035933 0.10741843 -0.15792464
0000b0 5e ec 32 bd e0 5c e1 3c f0 d9 90 3c 20 b0 1c 3d
       -0.04368245 0.027510107 0.017682046 0.038253903
0000c0 20 7b 30 bc 24 e9 0e bd 3a 94 70 bd 29 88 1b 3e
       -0.010771543 -0.03489031 -0.05873511 0.1518866
0000d0 8c 6f a4 3d 2a f6 93 3d 2a 9c f8 3d ac b6 8c bd
       0.080290884 0.072246864 0.12139161 -0.068707794
0000e0 a0 52 01 3c a6 88 f8 3d 88 2e 99 3c 2b 51 19 3e
       0.0078932345 0.121354386 0.018698946 0.1497237
0000f0 0c b2 93 3d d2 a5 e8 3d 93 a7 17 be cc 6f 20 be
       0.07211694 0.11359753 -0.14810018 -0.15667647
000100 61 b3 18 be 2b 24 a6 bd f4 03 02 bd 48 9e 91 bd
       -0.14912178 -0.08112367 -0.03174205 -0.07110268
000110 c4 03 97 3d 28 60 f8 bd e3 f5 1e 3e 5a 10 6c bd
       0.07373765 -0.12127715 0.15523486 -0.05763278
000120 60 da 84 3d 7d 03 1a be b2 fa dd 3d e0 28 66 3d
       0.06486964 -0.15040393 0.10838832 0.056191325
000130 91 75 06 3e e0 79 62 3d 00 ec 83 ba b0 1c 7f bc
       0.13130786 0.05529201 -0.001006484 -0.0155708045
000140 a5 7c ae bd 68 ac 86 bc c0 d8 4b 3c 76 bc 53 bd
       -0.08519868 -0.016439632 0.012441814 -0.051693402
000150 10 16 96 3c 40 1d f2 bc 15 c5 cd bd 1b fa be bd
       0.018321067 -0.029554963 -0.10047356 -0.093250476
000160 8a 8a c9 3d 1c 23 e4 bd 3a b2 fe 3d 7d d9 d8 bd
       0.09840877 -0.11139509 0.12436338 -0.105883576
000170 0c f2 4c 3d 8a 16 aa bd e0 7f 0e bc c9 64 09 be
       0.05003552 -0.0830508 -0.00869748 -0.13417353
000180 20 45 59 3c 68 ea d3 bc 40 fd 69 bd 00 40 43 b9
       0.01326111 -0.02586861 -0.057126284 -0.00018620491
000190 d6 e7 45 bd cc f2 16 bd de 75 f9 3d 6c 1b 70 3d
       -0.0483168 -0.036852643 0.121806845 0.0586199
0001a0 66 c1 1a be 3a c7 16 be aa b9 c4 bd 62 b5 ca bd
       -0.15112838 -0.14724436 -0.09605725 -0.09897877
0001b0 34 bf ef bd da 15 b1 3d 68 47 dd bc 36 ab 1b be
       -0.11706391 0.08646746 -0.027011588 -0.1520203
0001c0 00 d0 fd bd a3 b5 c5 bd fd 1e 11 3e a2 78 da 3d
       -0.123931885 -0.09653785 0.14171977 0.1066754
0001d0 3e d4 82 3d a9 0f bc bd 3d 77 12 3e 4e 5b e2 3d
       0.06388138 -0.091826744 0.14303298 0.11052571
0001e0 ac 0e 9f 3d a6 cd ab bd c8 ab a9 bc ab 0a ec bd
       0.0776647 -0.08388834 -0.020711794 -0.11525472
0001f0 b9 80 13 be 25 dd 14 3e 50 e1 07 bc 50 70 93 bd
       -0.14404573 0.14537485 -0.008293465 -0.07199156
000200 b1 af 16 be 72 ea 52 bd ca 42 b4 3d e2 b3 f1 3d
       -0.14715458 -0.051493116 0.088018015 0.11801888
000210 48 3b 84 3d e4 8f a8 3d 78 72 7a bd 22 3d 8f 3d
       0.064566195 0.0823057 -0.061144322 0.06994082
000220 ed 71 df bd 63 65 21 3e d0 16 1c be 58 60 1a be
       -0.109104015 0.15761332 -0.15243077 -0.15075815
000230 d8 79 ea 3c d8 d3 c5 bc ce 3b c3 3d 20 34 04 3d
       0.028622553 -0.024148867 0.09532891 0.032276273
000240 eb 78 20 3e a1 01 d1 bd 34 26 d3 bd 57 80 06 be
       0.15671127 -0.10205389 -0.10310021 -0.13134895
000250 14 11 a3 3d d0 03 5a 3d 45 09 00 be 4c cc 04 3d
       0.07962242 0.053226292 -0.12503536 0.032421395
000260 90 22 14 3c b0 8f 9c bc 5f 92 1b 3e 70 a1 6f bc
       0.0090414435 -0.019111484 0.15192555 -0.014625892
000270 06 c9 1f be c8 da e0 3c 98 2b 67 3d a8 fb e1 bd
       -0.15604028 0.027448073 0.05643806 -0.11034328
000280 df d9 13 3e 38 5b c9 3c e8 0d cf bc 6a 33 f6 3d
       0.1443858 0.02457963 -0.025275186 0.12021525
000290 f8 e6 d0 bd ed 46 1b 3e f2 13 f1 3d 22 cd 87 bd
       -0.10200304 0.15163775 0.117713824 -0.06630923
0002a0 ef 83 b2 bd 50 f8 4b 3d 5e 85 e6 3d e7 be 10 be
       -0.087165706 0.049797356 0.112559065 -0.14135323
0002b0 49 7a 04 be 7e 4f c5 3d 00 fb a0 bd 90 4c 19 be
       -0.12937273 0.096343026 -0.078603745 -0.14970613
0002c0 89 9f a4 bd 6c 14 82 3d 08 f4 b2 3c 06 0c f7 3d
       -0.080382414 0.063515514 0.021844879 0.1206284
0002d0 2d e9 e4 bd 0e 9d be 3d 66 9c f3 3d 96 d4 cc 3d
       -0.11177287 0.093072996 0.11895065 0.10001485
0002e0 be c8 5b bd 60 50 3d bd e2 06 ff bd 2e 59 4f bd
       -0.05365824 -0.04621923 -0.12452485 -0.050622158
0002f0 86 35 c3 bd b3 8f 13 be a2 bb c0 3d d0 18 56 bd
       -0.09531693 -0.14410286 0.09410788 -0.052269757
000300 97 a1 0a be 1e 77 f8 bd 00 8b a1 3a 78 3e ef bd
       -0.13538204 -0.12132095 0.001232475 -0.11681837
000310 59 70 d1 bd b0 4b ab bc 56 ed 82 bd 00 7d 6d 3d
       -0.10226507 -0.020910114 -0.063929245 0.057980537
000320 d9 0a 8a bd 1a 72 df 3d 57 07 b4 bd a4 3b 80 3d
       -0.0674035 0.10910435 -0.087904625 0.062613755
000330 6a d8 7d bd dc 18 17 3d 95 06 0a 3e 93 b1 11 3e
       -0.061973967 0.036888942 0.13479073 0.14227895
000340 70 c2 ec bd 28 52 5a 3d 3c c1 54 3d 66 6b f0 bd
       -0.115605235 0.053301007 0.051942095 -0.117392346
000350 c7 f3 1d 3e 90 c9 09 3c ca d1 e6 3d 4c 64 90 bd
       0.15425025 0.008409873 0.11270483 -0.0705038
000360 d8 7a 89 3d e4 d7 4c bd 0b 1d 17 be 2c e2 97 bd
       0.06712884 -0.050010577 -0.14757173 -0.07416186
000370 1a c7 c4 3d a0 bc f2 bb 76 c7 fe bd 33 c1 00 3e
       0.09608288 -0.0074077398 -0.12440388 0.125737
000380 e3 27 98 bd 3e 4e b5 bd 59 6c 1b 3e cf 93 b8 bd
       -0.07429483 -0.08852814 0.1517805 -0.09012567
000390 68 73 f5 bc d4 15 7d 3d 90 c5 af bc 04 ef 59 bd
       -0.029962257 0.061788395 -0.02145651 -0.05320646
0003a0 eb 4e 06 3e 1e 25 ec 3d 50 4b aa 3c 80 2e 90 ba
       0.13116042 0.11530517 0.020787865 -0.0011000186
0003b0 cb 22 1b 3e be b7 9f 3d 02 78 ae 3d ec 82 07 3d
       0.15149991 0.07798718 0.085189834 0.03308384
0003c0 20 72 ef 3b 00 33 96 ba fe 3b e6 bd 20 1b 81 3b
       0.007307306 -0.0011459291 -0.11241911 0.003940001
0003d0 0c 86 7d 3d 1c 37 7f 3d 31 7e 13 be 00 f2 6c 3c
       0.061895415 0.062308416 -0.14403607 0.014461994
0003e0 08 c6 01 bd 66 13 d1 3d 9a c0 68 bd ad b3 f3 bd
       -0.031682998 0.10208778 -0.056824304 -0.11899505
0003f0 7c c4 15 bd 7a e7 db 3d 00 e3 4b 3c 50 af 97 3c
       -0.036564335 0.1073751 0.012444258 0.018516213

weight_hh_l0 f4 [160, 40]
000000 6b 15 83 bd 54 9a 38 3d aa a7 d8 bd 4b fd 1f be
       -0.064005695 0.045069054 -0.105788544 -0.15623967
000010 07 36 10 3e f5 bf aa bd 74 bc 81 3d 48 4a 90 bc
       0.1408311 -0.08337394 0.06334773 -0.017613545
000020 60 f1 74 3c fe ec 20 be f3 62 97 bd 77 dd cf bd
       0.014950126 -0.15715405 -0.0739192 -0.10149663
000030 f4 07 7a 3d 20 42 c0 bb 2a 71 57 bd 00 75 61 3b
       0.06104274 -0.0058672577 -0.052598156 0.0034402013
000040 ca 91 c9 bd 70 95 31 3c 88 7b 06 bd ba 72 9f 3d
       -0.0984226 0.010838851 -0.032832652 0.07785554
000050 06 9d 04 be e6 c5 3b bd 74 dc d5 bd 02 80 f0 3d
       -0.12950525 -0.045843028 -0.10442439 0.117431656
000060 47 b4 1c 3e c0 78 15 3c 18 ca 63 3d d4 c8 e0 bd
       0.15303145 0.009123027 0.055612653 -0.10975805
000070 bc 9a 0a bd f8 e4 0e 3d 23 b5 01 be b5 d5 0c 3e
       -0.033838972 0.03488633 -0.12666754 0.13753398
000080 b0 9f 53 3d a8 bb e7 bd fa ed b2 bd f2 98 05 be
       0.05166596 -0.113150895 -0.08736797 -0.13046625
000090 b5 bf 18 3e e7 41 1b be fa 21 a3 bd 86 5f 96 bd
       0.1491688 -0.15161858 -0.07965465 -0.073424384
0000a0 4a 14 01 be f8 8c 19 3d e2 6c 1f be 6b b4 14 3e
       -0.12605396 0.037487954 -0.15568879 0.14521949
0000b0 b3 76 bd bd 93 d5 21 3e 1d 21 11 3e a0 dd b4 3b
       -0.09251156 0.15804128 0.14172788 0.005519584
0000c0 16 bd e9 3d fa d1 cd 3d 9e 71 f2 3d 9a a7 99 3d
       0.114130184 0.100498155 0.11838077 0.075026706
0000d0 c4 41 7f 3d a7 dd f1 bd 48 26 96 3c 00 19 10 3b
       0.06231858 -0.11809855 0.0183288 0.0021987557
0000e0 02 01 ab 3d da 1a e8 bd c0 36 fd 3c 48 84 a4 bd
       0.083498016 -0.113332465 0.030909896 -0.08033043
0000f0 dc cb ce bd c0 8f 5a bc fa a3 e0 bd 8c 7b a4 3d
       -0.10097477 -0.013339937 -0.10968776 0.08031377
000100 8c 17 42 bd e6 85 ad 3d 1c 2b 75 bd 2c bf e0 bd
       -0.047385737 0.08472805 -0.059855565 -0.10973963
000110 b0 16 0e be ac e1 a7 3d ac 3b b5 3d 9c 58 a2 bd
       -0.13875842 0.0819734 0.08849272 -0.07927057
000120 c0 de 50 3b 28 1e 77 bd 8d c2 11 3e 59 f6 05 be
       0.003187105 -0.060331494 0.14234371 -0.13082255
000130 ea 78 d8 3d ce 87 8d 3d 0e 9d 7c bd df b6 1c be
       0.105699375 0.06910668 -0.061673217 -0.15304135
000140 43 e6 11 3e 77 2d 06 3e b8 04 67 3d 9c a6 20 3d
       0.14247994 0.13103281 0.056400985 0.03922139
000150 5d de 07 3e 80 6b 8e 3b 4a 1d 8a 3d de 3f 22 bd
       0.13268419 0.004346311 0.06743868 -0.03961169
000160 3d 69 03 3e ca 38 a1 3d 66 19 9b 3d f7 93 04 3e
       0.12833114 0.0787216 0.07573204 0.12947069
000170 3e 7e 13 be 1e 61 fe 3d 08 72 85 bc f0 46 63 3d
       -0.14403626 0.124208674 -0.016289726 0.055487573
000180 dc fe 94 3d 78 5d 55 bd 1b 61 1c 3e a4 0b aa 3d
       0.07275173 -0.052091092 0.15271418 0.083030015
000190 30 a3 00 be 8a db e6 bd 47 db 1c 3e d4 4e 05 be
       -0.12562251 -0.112723425 0.15318023 -0.13018352
0001a0 cc ae dd bd 01 8c 07 be e6 93 dc 3d 50 ba 26 bc
       -0.108243555 -0.13237001 0.10770397 -0.010176256
0001b0 ae b5 e2 3d da 25 f5 bd aa d6 e7 3d ac 72 99 3d
       0.11069809 -0.1197011 0.11320241 0.07492575
0001c0 06 f1 d5 3d 30 7f 45 bd 74 67 11 3d e1 fd ba bd
       0.10446362 -0.048217 0.03549905 -0.09130455
0001d0 2b 44 b8 bd 68 5b fd bc 88 0d b8 3c c4 92 5d bd
       -0.08997377 -0.030927375 0.02246739 -0.054095045
0001e0 34 b0 68 3d d2 9b dc 3d 4e e9 1e be 19 93 1a be
       0.056808665 0.10771908 -0.15518686 -0.15095176
0001f0 f8 5a 8a 3d 52 4a 95 3d 3b c1 1c 3e c2 9c ec bd
       0.06755632 0.07289566 0.15308087 -0.11553337
000200 aa 72 6d bd 88 1a 1b 3d f0 20 d3 bc aa 20 70 bd
       -0.05797068 0.0378671 -0.025772542 -0.0586249
000210 2f b3 1d 3e 00 55 c8 3c ea 47 d4 3d f4 ff b1 3d
       0.15400384 0.024454594 0.10365279 0.08691397
000220 19 b2 0f be 5c 62 7a bd 80 4e cb bc 78 33 a7 3c
       -0.14032783 -0.06112896 -0.024817705 0.020410284
000230 71 b9 0e 3e a8 4b b3 3c 05 4f c3 bd 90 8e fd bc
       0.13937928 0.021886662 -0.09536556 -0.030951768
000240 99 cb 90 bd e8 88 94 3d 06 46 13 be 80 32 0f bb
       -0.07070083 0.07252675 -0.1438218 -0.0021850169
000250 2c 38 21 bd ec c0 0e be b7 4a 82 bd bc 91 2a bd
       -0.03936021 -0.13940781 -0.06361907 -0.04164289
000260 fa e2 c8 3d d2 66 17 be e3 07 86 bd 3b ab c8 bd
       0.09808917 -0.14785317 -0.06544473 -0.097982846
000270 72 43 a2 3d 8c 50 85 bd 88 0c 5c 3d 16 49 68 bd
       0.079230204 -0.06509504 0.05372289 -0.056710325
000280 9c df da bd a2 ce cc bd 22 b5 eb 3d ac 80 1e 3d
       -0.10687181 -0.100003496 0.11509158 0.03869693
000290 a9 e4 09 3e 00 54 7f 3a 29 56 17 3e 6e e8 8b 3d
       0.13466133 0.0009739995 0.14778961 0.06831442
0002a0 2a 03 75 bd a0 54 a0 bb 58 26 00 3d 18 f2 0b be
       -0.05981747 -0.0048929006 0.031286567 -0.1366657
0002b0 2a 55 94 3d de ae 4a bd a0 01 eb bc 7a 82 a1 3d
       0.07242806 -0.049483173 -0.028687298 0.078862146
0002c0 d6 2f 9f bd ad 99 0e 3e 76 ca 82 3d e1 75 1c 3e
       -0.07772796 0.1392581 0.063862726 0.15279342
0002d0 74 3e 9c 3d b8 7e 8f bc 94 88 2c bd f6 88 e1 3d
       0.076290995 -0.017516479 -0.04212244 0.11012451
0002e0 f6 11 ea bd 32 18 d6 3d 30 53 71 bd 68 81 84 3c
       -0.11429207 0.10453834 -0.058917224 0.016174987
0002f0 04 c8 ae bd e0 6f e3 bb d0 0b 40 bd 80 a7 76 bb
       -0.08534244 -0.006940827 -0.046886265 -0.003763646
000300 88 d8 a5 bd a0 0d 1a be e8 93 d8 bd 06 dd 03 be
       -0.08097941 -0.1504426 -0.10575086 -0.12877283
000310 69 4a 00 3e 50 70 43 3c a4 d4 fe bd 91 a0 12 3e
       0.12528385 0.011928633 -0.12442902 0.14319064
000320 e0 8c d9 3b f0 35 6b 3d bb 54 1a 3e 48 eb 94 3c
       0.006639108 0.057424486 0.15071385 0.018178597
000330 e4 a4 1e be 51 97 0d be 4c 34 41 bd 00 9c bc bb
       -0.15492588 -0.13827254 -0.047169015 -0.0057559013
000340 50 93 4d bc 4e 24 e0 3d b8 b7 9e bd 7c c2 e2 bd
       -0.012547329 0.109444246 -0.07749885 -0.11072251
000350 54 cd ce bd ee 00 9f 3d 93 07 19 3e 6c 34 d9 bd
       -0.10097757 0.07763849 0.14944296 -0.10605702
000360 50 06 79 3c f5 be 14 be 5d 1e af bd b5 f3 88 bd
       0.015199259 -0.1452597 -0.08550713 -0.066871084
000370 38 dc 9c 3c a0 fe a5 3b fe 6f ce 3d 40 15 8d 3c
       0.019147977 0.005065754 0.100799546 0.017222047
000380 50 0c 57 bc 11 f6 07 3e 90 35 65 3c 98 8e 82 bc
       -0.013125494 0.1327746 0.013989821 -0.015937135
000390 f2 22 17 be 90 81 cf 3c 36 8e 9a bd 48 0c 8c 3d
       -0.14759424 0.025330335 -0.07546656 0.0683828
0003a0 fe 1f f2 3d a8 b7 93 3c be 56 9c 3d 58 6f ae bd
       0.11822508 0.01803191 0.07633732 -0.08517331
0003b0 48 7d b9 3c 9e e9 eb 3d 40 a6 a9 3d 9e 69 1d bd
       0.022642747 0.11519168 0.08283663 -0.038430803
0003c0 ef 5c 0d 3e 07 21 07 3e 68 a1 e4 bc fa fe c8 3d
       0.13804983 0.13196193 -0.027908996 0.09814258
0003d0 00 26 09 3a 25 8d 11 3e e0 be ff bb cd 7d 11 3e
       0.00052317977 0.14213999 -0.0078047365 0.14208145
0003e0 1d 4f f1 bd 6c 40 3f 3d ce a8 fe 3d 28 15 a2 3c
       -0.11782668 0.046692297 0.12434541 0.019785479
0003f0 1c 5c 1b be 78 65 d4 bc 37 09 0a 3e c2 22 e8 3d
       -0.15171856 -0.02592729 0.13480078 0.113347545

bias_ih_l0 f4 [160]
000000 4e 7e 91 bd 8e 7f e7 3d 2f e9 88 bd 90 73 3d bc
       -0.07104169 0.11303626 -0.06685101 -0.011563197
000010 7f 97 e2 bd c1 3a ef bd 44 77 84 3d c2 37 d1 3d
       -0.11064052 -0.11681128 0.064680606 0.10215713
000020 50 25 8c bc e1 4f 1b be 20 e2 31 3d de 7c cd 3d
       -0.017107636 -0.1516719 0.04342854 0.10033582
000030 e4 79 18 be bc 83 5b 3d 28 56 b1 3c 8f ad 8f bd
       -0.14890248 0.05359243 0.021647528 -0.070155255
000040 2d 25 89 bd eb d7 10 3e 74 e5 9e bd ae 9c c8 3d
       -0.06696544 0.14144866 -0.077586085 0.09795509
000050 6b 1e 02 3e f2 fe eb 3d 9d 5f 03 3e c0 62 5e bc
       0.12706916 0.11523236 0.12829442 -0.0135733485
000060 68 82 92 bc df d8 06 be c0 0f be bb 34 12 e9 bd
       -0.017884448 -0.13168667 -0.0058002174 -0.11380425
000070 00 97 de 3a 59 ff 0d 3e 80 27 62 bb 71 a5 1c be
       0.0016982257 0.13866939 -0.0034508407 -0.15297486
000080 cf 20 0f be 92 f0 ae 3d 96 76 54 bd 36 7a f1 3d
       -0.13977359 0.08541979 -0.051870905 0.11790888
000090 86 df a1 3d 88 7a 80 3d 2a b5 d0 3d f1 02 0b 3e
       0.07903962 0.06273371 0.10190804 0.13575341
0000a0 ca 2f 81 3d 40 8d 5d 3d 1b 41 0f 3e 21 4e 15 be
       0.06307943 0.054089785 0.1398968 -0.14580585
0000b0 f2 98 be 3d e4 fb df bd a5 04 09 be 00 8a 8d 3b
       0.09306516 -0.10936716 -0.13380678 0.0043194294
0000c0 e0 c0 bb bb 82 0c be 3d 2e c4 07 be ff 32 83 bd
       -0.0057297796 0.092797294 -0.1325843 -0.06406211
0000d0 3e ab 85 bd 94 3b e8 bd c2 4d 79 bd 00 09 9a bc
       -0.065268025 -0.113394886 -0.06086517 -0.01880312
0000e0 c0 e8 54 bb e6 17 03 be f2 45 be bd c2 02 a0 3d
       -0.0032487363 -0.12802085 -0.09290685 0.07813026
0000f0 16 37 0a be 20 83 7c bc d4 1d 85 3d 11 fe 0b 3e
       -0.13497576 -0.015412122 0.0649983 0.13671137
000100 20 bc 85 bb c6 9a 31 bd a6 2b ec 3d 7a 5f e5 3d
       -0.004081264 -0.043360494 0.11531763 0.11199851
000110 69 23 93 bd 97 de 06 3e 60 b4 9d bd 86 54 b9 3d
       -0.07184488 0.13170849 -0.077004194 0.09049325
000120 f8 21 56 3d a6 e9 a0 3d 48 0d fd 3c 67 9f 04 3e
       0.05227849 0.07857065 0.030890122 0.12951432
000130 20 77 2f bc 0c 17 4b bd 66 7d f8 3d 64 e7 f6 bd
       -0.010709554 -0.049582526 0.12133293 -0.12055853
000140 05 17 01 3e 86 fb fc bd a1 45 b1 bd 60 d4 05 3d
       0.12606438 -0.12352662 -0.08655859 0.03267324
000150 fa dd d3 3d 60 d4 02 3d 1e a3 6b bd 04 fb 5d bd
       0.10345073 0.031940818 -0.057528608 -0.054194465
000160 d6 32 89 3d fb d7 20 3e 00 38 70 3c 6a 88 bc 3d
       0.06699149 0.1570739 0.014661789 0.092057064
000170 90 8f 00 be 6a f4 ff 3d aa 30 c7 3d ec 34 1f be
       -0.12554765 0.1249779 0.09726079 -0.15547532
000180 aa f3 1a be a2 2d a5 3d 69 cb 15 be 42 3b 08 be
       -0.15132013 0.080653444 -0.14628376 -0.13303855
000190 40 51 3a 3d 38 35 69 3d 40 21 43 3c 2d e8 0f 3e
       0.045487642 0.05693552 0.011909783 0.14053412
0001a0 ce 82 c5 3d 7b 5a 09 3e b8 47 e2 bc 3f 72 05 3e
       0.0964409 0.13413422 -0.027622089 0.13031863
0001b0 aa f5 83 bd f6 37 01 be 00 1a 88 ba 22 fd 00 be
       -0.06443341 -0.12619004 -0.0010383725 -0.12596563
0001c0 73 46 ac bd f8 20 87 3d d7 7a 0b be e0 ec fd bc
       -0.084118746 0.06598085 -0.13621078 -0.03099674
0001d0 5c 55 17 be c0 e5 a1 3b 50 c5 b6 3c 16 c6 eb 3d
       -0.14778656 0.0049407184 0.022310883 0.11512391
0001e0 d5 1d 9a bd 44 c0 06 bd f0 ed 92 3c e4 7f 10 3d
       -0.07525221 -0.032898203 0.017935723 0.035278216
0001f0 0c 72 85 bd ec 88 1b 3d b0 40 9c bd 8c 0a 10 be
       -0.06515893 0.037972376 -0.07629526 -0.14066523
000200 a0 d7 85 bb 1c 46 c2 bd a6 36 04 be 73 7e d4 bd
       -0.0040845424 -0.094860286 -0.12911472 -0.10375681
000210 8e af ca 3d a8 28 f8 3c d7 88 ed bd cc e4 25 3d
       0.09896766 0.030292824 -0.11598366 0.0405014
000220 04 d5 84 3d 76 6f ab bd 64 ea 04 3d c6 e9 20 be
       0.06485942 -0.08370869 0.032450095 -0.15714177
000230 91 ec 84 bd 30 73 23 bc 40 ac b2 bc 4c 03 67 3d
       -0.06490434 -0.009976193 -0.02181065 0.05639963
000240 da db a6 3d f4 d5 55 3d 80 de ac 3b 10 f0 b0 3d
       0.08147402 0.052205995 0.0052755475 0.08639538
000250 a7 31 a5 bd 2e 8a 76 bd d8 fb b8 bc 15 84 01 3e
       -0.08066111 -0.060190372 -0.022581026 0.12648042
000260 18 74 4a bd e8 15 19 bd 16 e4 9d 3d 40 b7 51 bd
       -0.049427122 -0.037374407 0.077095196 -0.05120015
000270 3c 99 71 3d 64 9d 3d 3d 2e 30 1c be 80 6d 29 3b
       0.058984026 0.046292678 -0.15252754 0.002585262

bias_hh_l0 f4 [160]
000000 28 49 bd 3c 6a 6a d2 bd e8 03 e3 3c f3 4b 18 3e
       0.023106173 -0.10274203 0.027711824 0.14872722
000010 cb 4e 01 3e 76 55 de bd 4e 31 00 be 00 e0 fc bc
       0.12627713 -0.10856144 -0.12518808 -0.03086853
000020 ac 91 53 3d 73 5d a5 bd be fa bb 3d 22 77 be 3d
       0.051652595 -0.08074465 0.09178685 0.093000665
000030 b4 43 3c bd f9 fb 1a 3e bd 07 9c bd 3e a0 c7 bd
       -0.045963004 0.15135182 -0.076186635 -0.09747361
000040 10 bf 14 3d 86 32 e2 3d 07 7d 15 3e bd b8 e5 bd
       0.036315024 0.11044793 0.14598475 -0.11216877
000050 c0 20 27 bd c3 1b 12 3e fc b3 21 be 60 82 54 3d
       -0.040802717 0.14268403 -0.15791315 0.051882148
000060 55 fe 0f 3e c8 70 ac 3d e6 2b f2 3d e8 9a b7 bc
       0.14061864 0.08419949 0.11824779 -0.022412732
000070 af 9a 02 3e 00 75 83 3b 48 c1 1c bd 00 0f b0 bc
       0.1275432 0.00401175 -0.038270265 -0.021491528
000080 94 55 3b bd 20 eb 52 3c 2b 71 19 3e c8 bc 92 3c
       -0.04573591 0.012873441 0.14984576 0.017912284
000090 20 05 80 3c 3a 9b 80 3d 54 69 bb 3d e6 de 5b bd
       0.015627444 0.06279607 0.09150949 -0.05367937
0000a0 30 9a 1b bc c0 12 6a 3b c0 7a 32 3b 4c c0 02 be
       -0.00949721 0.0035716742 0.002723381 -0.12768668
0000b0 90 d8 c9 bc 2c 69 06 bd f8 a4 09 be 0c e0 91 bd
       -0.024639398 -0.032815143 -0.13441837 -0.07122812
0000c0 25 5a 17 3e 98 c8 ba 3d a7 d1 15 3e 62 53 05 be
       0.14780481 0.091202915 0.14630757 -0.1302009
0000d0 67 37 0f be 5f 26 9f bd 00 9a c0 3a dc a4 9c 3d
       -0.13985978 -0.077709906 0.0014694333 0.07648632
0000e0 46 fa de bd 80 b2 45 3d 00 9d 1a 3d f2 8f db 3d
       -0.108875796 0.048265934 0.037747383 0.10720815
0000f0 a8 c8 de bc a4 c5 74 bd 44 37 0f be 2e 08 6a bd
       -0.02719529 -0.059758797 -0.13985926 -0.057136707
000100 8c 24 d5 bd 98 ee 85 3d 4f cc 11 be cf 5b b3 bd
       -0.104073614 0.06539649 -0.14238094 -0.087577455
000110 ea 34 01 be 26 d7 c7 3d 7f 40 1d 3e 6d a5 0a 3e
       -0.12617841 0.09757833 0.15356635 0.13539667
000120 4c ee 37 bd 35 0e 80 bd 00 8c 25 3c 34 8e 72 bd
       -0.044904992 -0.0625271 0.010104179 -0.059217647
000130 a4 5a 86 bd 0f 9e 0e 3e f0 53 92 bd aa c9 f0 3d
       -0.06560257 0.13927482 -0.07144916 0.11757214
000140 38 77 85 bc b0 dc 1e bc 68 22 e2 bc 80 b1 47 bb
       -0.0162922 -0.009696171 -0.027604297 -0.0030470788
000150 86 fa e7 3d a8 d5 05 3d 8b f0 09 3e 49 31 16 3e
       0.113270804 0.03267446 0.13470666 0.14667238
000160 80 5f 3e 3c 1c f2 7f 3d aa aa cc 3d fa 18 f8 3d
       0.011619449 0.062486753 0.09993489 0.12114139
000170 80 f5 45 bb 20 85 88 3c 80 6c 21 bc f8 d4 a4 3d
       -0.0030206144 0.016665041 -0.009852529 0.08048433
000180 3c 2a 65 3d 9a 50 d3 3d 07 c8 00 3e 93 44 0f 3e
       0.05594848 0.10318108 0.12576304 0.13991003
000190 4d cc d4 bd 48 0c 14 be dc 31 a8 bd 1e fc 93 bd
       -0.1039053 -0.1445781 -0.08212635 -0.07225822
0001a0 ce 5f aa bd 52 16 92 3d b1 69 fd bd 80 b8 b2 3a
       -0.083190545 0.071331635 -0.12373675 0.0013635308
0001b0 f0 4c 05 bc 20 2c b1 3c 78 01 45 3d da 83 5c bd
       -0.008136019 0.021627486 0.048097104 -0.05383668
0001c0 72 b1 86 3d 88 d0 eb bd ce d5 0f be e2 89 d4 bd
       0.06576814 -0.115143836 -0.14046404 -0.103778616
0001d0 03 58 8b bd aa d2 b1 3d f0 a2 f0 bc ba 8b dc 3d
       -0.06803896 0.08682759 -0.02937457 0.10768838
0001e0 70 70 71 3c aa a7 b0 3d 00 ba fb bc 30 e0 c4 bc
       0.01473628 0.086257294 -0.03072834 -0.024032682
0001f0 20 03 8b 3d 24 13 20 3d 03 63 16 3e 80 1e 46 3d
       0.067877054 0.039080754 0.14686207 0.04836893
000200 74 75 54 3d 80 4a 86 3d c8 20 36 bd 78 83 80 3c
       0.051869825 0.065571785 -0.044464856 0.01568769
000210 fa 95 cc bd 50 af fc bc 5e 45 dd bd ec c3 9c bd
       -0.09989543 -0.030845314 -0.10804246 -0.07654557
000220 a8 63 e4 3c e0 12 7f bc dc e4 43 bd ce b9 52 bd
       0.027879551 -0.015568465 -0.04782568 -0.05144673
000230 0e 81 92 3d cc 55 99 bd cb 6a 16 3e d3 c6 14 3e
       0.071535215 -0.074870676 0.14689176 0.1452897
000240 60 f8 7c 3c 4d 4f 0d be 48 5e c7 bd d8 53 e1 3c
       0.015440077 -0.13799782 -0.097347796 0.0275058
000250 fa cb e4 3d c5 ae bd bd 9b 38 1b 3e 84 90 a7 3d
       0.11171718 -0.0926185 0.15158312 0.08181861
000260 5e 32 ce 3d 3a 7d c4 3d 00 b5 1e bb 5c f1 13 be
       0.100682005 0.095941976 -0.002421677 -0.1444754
000270 cf b7 1b 3e 5a df d2 bd 21 e1 21 be b6 a6 31 bd
       0.15206836 -0.10296507 -0.15808536 -0.04337188

weight_ih_l0_reverse f4 [160, 20]
000000 e6 15 14 bd c8 5a 0f 3d 90 ad d8 3c 52 c7 c4 bd
       -0.036153696 0.034998685 0.026449949 -0.0960833
000010 56 43 dd 3d 24 bf e3 bd 3c 19 20 3d b8 ae 4b 3d
       0.10803859 -0.111204416 0.039086565 0.04972717
000020 4e 9c f6 bd f8 53 4a 3d 1c f0 9d 3d 4a cb f3 3d
       -0.120415315 0.049396485 0.07711813 0.11904009
000030 30 68 00 bc 8f 58 a2 bd 78 54 b0 3d da 3c d8 3d
       -0.00783734 -0.079270475 0.08609861 0.105584815
000040 eb d8 95 bd 80 6a 9e bd 11 7a a6 bd 74 af a3 3d
       -0.073167644 -0.07735157 -0.08128751 0.079924494
000050 0c 2f 78 3d ce 29 b5 3d 0a 60 21 be a0 8a cb bd
       0.060591742 0.08845864 -0.15759292 -0.0993855
000060 a7 cf 1e 3e b6 d6 86 3d 50 13 d9 bc 23 87 05 3e
       0.155089 0.065839216 -0.026498467 0.13039832
000070 90 bc 79 3d 50 e1 11 be bf 06 07 3e 4c ba 54 bd
       0.060970843 -0.14246106 0.13186167 -0.05193548
000080 ca 1b 89 3d 5e f5 ee 3d 9e 93 1a be 66 83 d8 3d
       0.066947535 0.11667894 -0.15095374 0.10571937
000090 84 dc 7b 3d 84 88 5b 3d 35 0c 0f 3e ca 42 76 bd
       0.061489597 0.05359699 0.139695 -0.06012229
0000a0 40 f8 b5 3b 06 84 8f bd fa c1 86 3d e0 f7 f5 bc
       0.0055532753 -0.07007603 0.06579967 -0.030025423
0000b0 60 b6 c7 bc 80 ab a2 3b 40 6c 48 bb 12 46 2f bd
       -0.024378955 0.004964292 -0.00305821 -0.042791434
0000c0 30 bd 09 3c f0 99 f6 bc a4 89 ad 3d 86 4b b5 bd
       0.008406922 -0.0301027 0.084735185 -0.088522956
0000d0 dc 8d a6 bd a7 8b 07 3e 4e ff f6 bd 80 d2 10 3d
       -0.08132526 0.13236867 -0.12060414 0.035357
0000e0 70 5e 7e bc 08 76 41 3d a6 77 ce 3d 00 5e da 39
       -0.015525445 0.047231704 0.10081415 0.00041650236
0000f0 ed f6 94 bd cb 05 21 3e 82 7f a5 3d 48 8f 87 3d
       -0.0727366 0.15724866 0.08080961 0.066191256
000100 b0 bf 47 bc 60 82 96 3c a4 6c 40 3d e0 14 66 3d
       -0.012191698 0.018372715 0.046978608 0.05617225
000110 54 ce 86 3d 0c de 88 bd 2c d5 76 3d 9d 8a 13 be
       0.06582323 -0.06682977 0.06026189 -0.14408346
000120 e6 44 a6 3d 5e 53 d8 3d 56 86 0c be 5e 23 ae bd
       0.0811861 0.10562776 -0.1372312 -0.085028395
000130 2b 76 0c 3e a0 b6 2a 3c 40 69 36 3c 1b aa b0 bd
       0.13716953 0.010419518 0.011133492 -0.08626195
000140 8c 08 3a 3d c8 fa b0 3d da 59 a3 bd b8 a0 1a 3d
       0.045418307 0.08641583 -0.07976122 0.03775093
000150 00 be 41 3d 36 8a c4 bd 7a 81 3b bd ec 5d 71 3d
       0.04730034 -0.09596674 -0.045777775 0.05892746
000160 e2 cd 9f bd e2 99 c9 3d 96 5d 72 bd 0e f4 82 bd
       -0.07802941 0.09843804 -0.05917128 -0.06394206
000170 e1 d0 00 be c0 95 3d 3c 32 3c f2 3d 40 12 aa bc
       -0.12579681 0.011571348 0.118278876 -0.020760655
000180 55 59 ee bd ac 93 6b 3d c0 18 42 3d 56 33 a6 3d
       -0.116381325 0.057513878 0.047386885 0.0811526
000190 a2 03 fd 3d a0 cd 29 3c 82 ac e4 bd 0e 89 d6 bd
       0.123542085 0.010363966 -0.11165716 -0.1047536
0001a0 24 46 64 3d 33 8c bb bd ec 8f 92 bd a0 30 4c bc
       0.055730954 -0.091576 -0.07156357 -0.012462765
0001b0 c2 42 95 3d 00 53 17 3c 04 69 29 bd b5 bb 09 3e
       0.07288124 0.009236097 -0.041359916 0.13450511
0001c0 16 c3 a3 bd cc e7 28 bd a0 59 4c bc 25 5a bb bd
       -0.07996194 -0.041236684 -0.01247254 -0.09148053
0001d0 f0 53 8b bc f2 24 7c bd 39 f2 9b bd 10 bc 05 3c
       -0.017007798 -0.06155867 -0.0761456 0.008162513
0001e0 60 8f 4f 3c 0f 79 0e be 30 72 0c be 12 9d b6 3d
       0.012668461 -0.13913368 -0.13715434 0.089166775
0001f0 1a a5 fc 3d e0 e3 fa bb 20 15 06 be 11 24 1b 3e
       0.12336178 -0.0076565593 -0.13093996 0.15150477
000200 28 62 b0 3d f6 f0 de 3d 24 d1 d5 bd ac 19 03 bd
       0.08612472 0.108858034 -0.10440281 -0.032006904
000210 e5 b7 1d 3e 9b fe 00 3e 02 97 d1 bd c2 2f dd 3d
       0.15402181 0.12597124 -0.102338806 0.10800125
000220 c4 68 73 3d c6 32 ee bd 30 3d 0e be ee 28 14 be
       0.059426084 -0.11630778 -0.13890529 -0.14468738
000230 f8 df f4 3c 72 39 02 be c0 81 aa 3d 7b 30 21 3e
       0.029891953 -0.12717226 0.08325529 0.1574115
000240 57 f4 20 3e bc af 6d 3d 76 9a 75 bd d3 61 1c 3e
       0.15718208 0.05802892 -0.05996176 0.15271692
000250 9d 7a 0e be ea db 0a be 90 0b 7b 3d d0 12 e6 3c
       -0.13913961 -0.13560453 0.061290324 0.028085142
000260 6e 92 44 bd f0 30 17 3c 44 60 00 3d 50 27 8e bd
       -0.04799121 0.009227976 0.031341806 -0.06941092
000270 1c 2a e6 bd 37 25 0a 3e 70 71 ae 3c 30 b3 be 3c
       -0.112385005 0.13490759 0.021294326 0.023278803
000280 80 eb f5 3a f6 7b 78 bd 7a 92 1f be 00 42 5b bb
       0.0018762201 -0.060665093 -0.1558322 -0.0033456087
000290 09 b2 a4 bd d8 66 ac 3c 2f 51 17 be 14 f0 78 3d
       -0.0804177 0.021045133 -0.14777063 0.06077583
0002a0 14 db 0c 3d 11 a9 1e be da 2f c7 3d c0 c7 c1 3c
       0.034388617 -0.15494181 0.09725924 0.023654819
0002b0 be d3 d7 3d a0 f7 04 3d 68 73 bb bd a6 12 23 bd
       0.105384335 0.032462716 -0.09152871 -0.039812706
0002c0 5d f2 08 3e 96 67 da 3d 48 9f ef bc ff b6 01 3e
       0.13373704 0.10664289 -0.029250756 0.12667464
0002d0 40 cf a1 3b 40 e1 9d bb c8 dc bc bc 66 5a e2 bd
       0.004938036 -0.0048181117 -0.023054495 -0.110523984
0002e0 38 47 e5 3c 16 50 f9 3d 66 d6 ed 3d 45 2c aa bd
       0.027988061 0.12173478 0.11613159 -0.08309225
0002f0 7a 41 ed 3d 40 43 6b 3d 6f 07 07 3e a1 7c 20 be
       0.11584754 0.05743718 0.1318643 -0.15672542
000300 d0 e9 58 bc 18 58 de bc 2e 9d 0c be 9e dd 11 bd
       -0.013239339 -0.027141616 -0.13731834 -0.03561174
000310 60 71 00 bc 82 2f cd 3d 16 72 1d be 14 b1 ed bd
       -0.007839531 0.10018827 -0.15375552 -0.116060406
000320 14 57 55 3d e9 f3 de bd 70 de bb bc 15 c7 13 3e
       0.052084997 -0.10886366 -0.022933215 0.14431413
000330 6d 3f ae bd fa a4 58 bd da 20 bd bd c0 24 3a bb
       -0.08508191 -0.05289171 -0.092347816 -0.0028403252
000340 e0 56 52 3c a1 10 11 3e 36 45 11 be 00 d1 ca ba
       0.012838095 0.141665 -0.14186558 -0.0015473664
000350 76 5f f0 bd f2 7a 1e be 30 3d 76 3c b0 70 dc 3c
       -0.11736958 -0.15476587 0.015029237 0.026909202
000360 68 0c 68 3d 5c 62 7e 3d 38 3b ff 3c 3c ed 25 3d
       0.056652457 0.06210552 0.031156167 0.040509447
000370 a0 87 a8 3b 60 1a e1 bc 96 62 f9 3d 60 86 61 3d
       0.005143121 -0.027478397 0.12177007 0.05505979
000380 66 bc 1c be fa be 85 3d 48 96 a5 bc ec cb 00 be
       -0.15306243 0.065305665 -0.020213261 -0.1257779
000390 c0 fb 06 3d 6d 58 13 3e f8 49 26 3d a8 b4 9b 3d
       0.03295493 0.143892 0.040597886 0.07602817
0003a0 e7 7e b2 bd 9c 7b 2e 3d db 62 08 3e f5 6a 0c 3e
       -0.08715611 0.04259835 0.1331896 0.13712676
0003b0 25 a4 c8 bd d6 d6 5e bd 48 35 54 3d 7e f0 fa 3d
       -0.09796933 -0.054404102 0.051808625 0.122529015
0003c0 ad 01 20 3e 70 bc 6b bc 30 9b 31 3d 4d 6b 03 3e
       0.1562564 -0.014388189 0.04336089 0.12833901
0003d0 04 5b 52 3d 00 86 be 39 b5 07 1d 3e 62 d8 98 bd
       0.05135633 0.00036339462 0.15334971 -0.07463147
0003e0 60 3c e0 3b 7a 37 fd 3d 4e 96 0d bd 49 b0 07 be
       0.0068431348 0.12364097 -0.03456717 -0.13250841
0003f0 00 01 11 ba 8f 55 d1 bd b6 ea e7 3d b0 7b b8 3d
       -0.000553146 -0.10221397 0.113240644 0.090079665

weight_hh_l0_reverse f4 [160, 40]
000000 8e 38 e1 3d ff 10 21 3e 00 b1 7e bc 80 76 4b 3d
       0.10997115 0.1572914 -0.01554513 0.049673557
000010 74 75 5d bd 32 71 fc bd 80 c2 af bc 18 47 86 3c
       -0.05406709 -0.12326278 -0.02145505 0.016391322
000020 bd d7 0e 3e 50 d2 1c 3d 70 e5 85 bc e8 9a 80 bc
       0.13949485 0.038286507 -0.016344756 -0.015698865
000030 70 ea 73 bc eb 27 1d be a0 12 8b 3d 80 64 4f bc
       -0.014887437 -0.15347259 0.06790662 -0.012658238
000040 25 25 10 3e 28 90 a2 3c b2 58 c8 3d a0 1e ff 3b
       0.1407667 0.01984413 0.09782542 0.007785633
000050 58 4b 8a bc 90 47 38 3d 5d b9 07 be f0 98 65 bc
       -0.01688163 0.044990122 -0.13254304 -0.014013514
000060 61 63 0f 3e 39 56 10 3e 70 22 69 bc 60 41 01 bc
       0.14002754 0.14095391 -0.014229402 -0.007889122
000070 6a 06 f2 3d f2 de 6c bd e0 e9 83 bc 06 93 17 be
       0.1181763 -0.057829805 -0.016102731 -0.14802179
000080 70 50 b1 3c 12 fa ed 3d 7e c3 38 bd e4 d5 1f 3d
       0.0216448 0.11619963 -0.04510831 0.03902234
000090 f0 5c 55 3c 4a 55 73 bd d8 26 b7 bd d6 ca f5 3d
       0.013022646 -0.05940751 -0.08942956 0.120015785
0000a0 41 96 0f 3e 18 6b f1 3c fa 27 40 bd c2 b6 6e bd
       0.14022161 0.029470012 -0.046913125 -0.05827976
0000b0 12 75 1e be 96 d4 17 be ea e9 f3 3d d0 0e fd 3c
       -0.15474346 -0.14827189 0.1190985 0.030890852
0000c0 d5 25 c0 bd 69 20 19 3e d0 5d be 3c 56 3f bf 3d
       -0.09382216 0.1495377 0.023238093 0.09338252
0000d0 58 65 3e 3d 80 14 8f ba ed 84 d0 bd 2e 10 ea bd
       0.046483368 -0.0010916144 -0.101816036 -0.11428867
0000e0 51 95 1c 3e 70 bb f9 bc 44 2c 0d 3d e0 8e d7 3b
       0.15291335 -0.030484885 0.034466043 0.0065783113
0000f0 00 1f cc bd f8 32 11 be fe 74 a7 bd e0 bd fa 3c
       -0.0996685 -0.141796 -0.08176611 0.030608118
000100 00 75 1d ba e6 1e e2 3d c0 db 84 bb 58 54 87 3c
       -0.0006006509 0.1104105 -0.0040545166 0.01651971
000110 3a cd e3 3d 53 cd 10 3e 24 09 eb bd 9a 5f a5 3d
       0.11123128 0.14140825 -0.11476353 0.08074875
000120 be e9 e8 3d c9 1f 1b 3e 9c 44 ac 3d 05 b7 ed bd
       0.11372708 0.15148844 0.08411524 -0.11607174
000130 66 ac a8 bd 18 a0 bd 3c d4 da 9d 3d e0 50 a0 bc
       -0.082360074 0.023147628 0.07707754 -0.019569814
000140 00 c8 e5 ba 40 35 60 bc 60 c2 71 3c 87 9c c0 bd
       -0.0017530918 -0.013684571 0.014755815 -0.09404855
000150 a0 eb e8 3c f4 fd 1e 3d 00 4b e7 ba 27 08 1b be
       0.028432667 0.038816407 -0.0017646253 -0.15139829
000160 ae ad 84 bd b9 df 02 be dd f6 18 3e 8c 2b 6a 3d
       -0.06478439 -0.12780656 0.14937921 0.057170436
000170 76 0e 43 bd b4 a4 08 3d 2a 33 1d bd 01 d1 0c 3e
       -0.047621213 0.0333602 -0.038378872 0.13751604
000180 de 22 90 bd 50 2b f3 bd 5c c4 18 bd bf 8c 85 bd
       -0.070379004 -0.118734956 -0.037296638 -0.06520986
000190 eb 16 0f 3e c4 4e dc bd 82 24 21 bd 8b 13 9d bd
       0.13973586 -0.10757211 -0.039341457 -0.07669743
0001a0 76 99 ea 3d c4 e2 9f 3d 9a 5e cb 3d f5 83 db bd
       0.114550516 0.07806924 0.09930153 -0.10718528
0001b0 48 a7 8f bd 3d 98 21 3e 81 9d c3 bd ce e8 11 be
       -0.07014328 0.1578073 -0.09551526 -0.14248964
0001c0 18 b8 a3 3d 76 ea 84 3d 80 2c 47 bb 5a ea da 3d
       0.079940975 0.064900324 -0.0030391514 0.1068923
0001d0 8e 73 cf 3d 00 f0 18 bc 56 a5 c1 bd 16 9d 2a bd
       0.10129462 -0.009334564 -0.094553635 -0.041653715
0001e0 a0 b8 74 3c d4 31 ba 3d 9b cc 0c be 3a f6 d5 bd
       0.014936596 0.09091535 -0.13749926 -0.104473546
0001f0 52 9d aa 3d 10 23 79 3d 70 ad f0 bc 68 93 91 bc
       0.08330788 0.060824454 -0.029379576 -0.017770484
000200 90 99 6e 3d d8 c2 48 3d f4 45 70 bd 00 f4 15 39
       0.058251917 0.049013942 -0.058660462 0.00014300644
000210 62 e0 91 3d 9c 7f c6 bd d6 4f ea 3d 1d 1f 11 3e
       0.07122876 -0.09692308 0.11441009 0.14172025
000220 c8 53 85 bc ea b1 b9 3d b9 71 91 bd ae 4f bc 3d
       -0.016275302 0.090671375 -0.07101769 0.09194885
000230 74 f7 0b bd 54 41 03 bd 06 0f cb bd c6 af a4 bd
       -0.034171537 -0.032044724 -0.09914975 -0.080413386
000240 8a 97 94 3d 68 4e 01 3d be bb bd 3d df 0b 8b bd
       0.07255466 0.031568915 0.092643246 -0.067893736
000250 31 80 a6 bd c1 f8 99 bd b7 e3 b1 bd 58 fd cd 3c
       -0.08129919 -0.07518149 -0.08686011 0.025145218
000260 f8 d2 ff 3c 00 37 b3 3a 9c e1 ed bd 48 af 6f 3d
       0.031228527 0.0013673007 -0.11615297 0.05851677
000270 70 d9 90 3d a0 6c 24 3c a2 c4 c6 bd ec 7b 87 3d
       0.07072723 0.010035664 -0.097054735 0.06615433
000280 10 06 70 bd 42 56 a9 3d 9e 0a a1 3d 90 3e 07 bc
       -0.05859953 0.082684055 0.07863353 -0.008254662
000290 f8 54 6b bd e0 e0 11 be 4a 5a ea bd 60 c2 93 3b
       -0.05745408 -0.14245939 -0.114430025 0.0045092553
0002a0 54 e8 05 be 80 db 97 3c 8e 33 cd 3d dd 10 17 3e
       -0.13076907 0.018537283 0.10019599 0.14752527
0002b0 70 bf 5e 3d 3e 23 a3 bd 1e 03 f9 3d 10 a0 b0 3d
       0.054381788 -0.07965706 0.12158798 0.086242795
0002c0 40 ad b0 3b d6 64 f3 3d 05 9f 9f bd 60 bb 61 bc
       0.0053917468 0.11884467 -0.077940024 -0.013777584
0002d0 72 a0 b2 3d df e1 a2 bd 50 ec d5 3c fd 24 14 3e
       0.08722009 -0.07953238 0.02611366 0.14467235
0002e0 ee d3 11 be f4 b9 e3 bd 83 45 bb bd 00 6c 25 bb
       -0.14241001 -0.11119452 -0.09144118 -0.0025241375
0002f0 60 69 a7 bc 48 c0 ec 3c 10 b1 c4 3c 5e 95 c6 3d
       -0.020435989 0.02890028 0.024010211 0.09696458
000300 a4 f5 b9 bd 88 d4 a7 3d 27 61 10 3e c0 3f c4 bc
       -0.09080055 0.08194834 0.1409956 -0.02395618
000310 60 57 c3 3c 72 cc c6 3d 0e 73 fe 3d 72 5d 97 bd
       0.023845375 0.097069636 0.12424289 -0.0739087
000320 5e e1 92 3d 00 3c 1b 3d da 90 09 be 0a 01 ce bd
       0.07171892 0.037899017 -0.13434163 -0.10058792
000330 5a 4e b7 3d 00 96 76 3d 08 7a a9 3d 40 30 15 bd
       0.08950491 0.060201645 0.08275229 -0.036422968
000340 38 b4 d9 bd 8e 4e 63 bd 54 40 54 bd 80 8f e0 ba
       -0.10630077 -0.055494837 -0.05181916 -0.001713261
000350 52 f0 39 bd f2 e0 ed 3d f6 3d 20 be 4a 77 c2 3d
       -0.045395203 0.116151705 -0.15648636 0.09495409
000360 26 5e 99 bd 54 cc a3 3d 76 3e f0 3d 9b de 06 3e
       -0.074886605 0.07997957 0.117306635 0.13170855
000370 90 40 5a 3c d4 f9 58 3d 80 00 39 3c f4 43 a5 bd
       0.013321057 0.05297263 0.011291623 -0.08069602
000380 90 01 76 bc 40 c3 a7 bc a7 ce 0b be 7c 29 f1 bd
       -0.015015021 -0.020478845 -0.1365305 -0.11775491
000390 67 db 11 3e 2a 0d ea 3d 00 8b cf bc e5 c9 01 3e
       0.14243852 0.11428292 -0.025334835 0.12674673
0003a0 cb a3 82 bd 40 84 75 bb cb 48 f5 bd b0 f3 28 3c
       -0.06378897 -0.003746286 -0.11976775 0.010312006
0003b0 1c 25 1d bd c4 d1 70 3d 8e 75 fe 3d 44 57 40 3d
       -0.03836547 0.058793798 0.124247655 0.046958223
0003c0 72 72 b6 3d 18 ba fa bc e7 b8 06 be 1d e7 02 3e
       0.089085475 -0.030606315 -0.13156472 0.12783475
0003d0 19 d5 06 3e 54 d6 0b bd 00 bd ed ba 41 5d 0c 3e
       0.13167228 -0.034139946 -0.0018137991 0.13707449
0003e0 c6 04 fc 3d 0f 95 06 3e fe 37 b7 3d cf e8 04 3e
       0.12305598 0.13142799 0.089462265 0.12979434
0003f0 10 4d 84 3c b8 af 8b 3c 00 4e 52 3a 00 9f aa 3c
       0.016150028 0.017051563 0.0008022487 0.02082777

bias_ih_l0_reverse f4 [160]
000000 8a 7e fc 3d c0 11 db 3b f6 f8 e2 3d 16 94 f5 bd
       0.12328823 0.0066854656 0.11082642 -0.11991136
000010 e9 e8 20 be 64 d1 0c be 80 f1 ae bd 95 97 0a 3e
       -0.15713848 -0.13751751 -0.08542156 0.13534386
000020 15 36 f9 bd 55 e6 13 3e 10 ff 5c 3d 1a 27 d4 bd
       -0.121685185 0.14443333 0.053954184 -0.103590205
000030 cb 73 18 3e 40 c3 d9 bd 91 51 0f 3e a0 26 26 3d
       0.14887922 -0.10632944 0.13995959 0.04056418
000040 a0 f3 e7 bb 9e 1c 51 bd 48 13 6a 3d da ad ef 3d
       -0.007078603 -0.051052682 0.057147294 0.117030814
000050 a6 db a9 3d 52 9b e4 3d b8 ed ae 3c 97 f4 a4 bd
       0.08293848 0.111624375 0.021353588 -0.08054464
000060 30 9c f8 3c 5c 56 30 3d f2 8e cf 3d b8 f2 57 3d
       0.030347914 0.04305111 0.101346865 0.05272171
000070 00 6b 6b 3b b8 8c 92 3c be 7d 98 3d 86 c0 d6 3d
       0.0035921931 0.017889366 0.074458584 0.1048594
000080 cf da 02 3e 00 9f 71 bd 2b 9b a1 bd 9e 2b 17 bd
       0.12778781 -0.058989525 -0.07890924 -0.03690683
000090 63 24 14 3e 07 98 ab bd 9a 15 c1 3d 8e ab f2 bd
       0.14467005 -0.08378606 0.09427948 -0.11849128
0000a0 30 90 0b 3c 7f 80 00 be b8 c7 ec 3c 94 78 77 bd
       0.008518264 -0.12549017 0.028903827 -0.060417727
0000b0 20 0d 85 bc 46 79 89 3d 5a 49 ea 3d d2 76 cb 3d
       -0.01624161 0.06712584 0.11439772 0.099347726
0000c0 22 91 48 bd 81 fb 03 be bf b4 1a 3e 29 cc 10 be
       -0.048966534 -0.1288891 0.15108012 -0.14140381
0000d0 98 d9 9d 3c 6e 06 bc bd 9a 52 3f bd bc aa 40 3d
       0.019268796 -0.09180914 -0.046709634 0.047037825
0000e0 3d c5 a9 bd c0 65 ee 3c e4 37 84 3d 86 7a d9 3d
       -0.08289573 0.029101253 0.06455973 0.106190726
0000f0 e9 57 10 3e e1 f1 03 be 61 c1 ef bd 9e 2b ce 3d
       0.14096035 -0.12885238 -0.11706806 0.10066913
000100 10 76 87 3d 4a c0 e9 3d b6 ab 7e bd 3f 25 be bd
       0.066143155 0.11413629 -0.062175475 -0.09284448
000110 a8 b2 59 3d 8a a6 ce 3d 02 55 78 bd f8 f8 0d 3d
       0.053148896 0.100903586 -0.060627945 0.034661263
000120 6c bc 06 bd 2b 0c 02 be 1a 2c 9a bd 60 34 ab 3b
       -0.032894537 -0.12699954 -0.07527943 0.0052247494
000130 00 24 3c bc 46 d0 c8 3d 6d 3f 0c 3e 72 84 80 bd
       -0.011483192 0.0980535 0.1369607 -0.06275262
000140 80 c3 8e bc 69 de 19 3e 7c 01 78 3d 30 82 77 3c
       -0.017427206 0.15026249 0.06054829 0.015106723
000150 ba 30 e1 3d 90 ff 8b 3c 75 92 11 3e 80 ea 54 3b
       0.10995622 0.017089635 0.14216025 0.0032488406
000160 68 91 a2 3c ae b0 fd 3d d4 91 85 3d 40 23 5f 3d
       0.019844726 0.123872146 0.06521955 0.054476976
000170 6e c5 d0 bd 7f 46 1d 3e a6 51 a8 3d 0d a8 0d 3e
       -0.10193907 0.15358923 0.08218698 0.13833638
000180 e4 f3 5e bd 18 38 9e 3d ce f5 c2 3d 70 bf 4f bc
       -0.05443181 0.07725543 0.0951954 -0.01267992
000190 0c 57 8e 3d 70 ca 66 bd f3 95 1a be 9c 03 9b bd
       0.069501966 -0.056345403 -0.15096264 -0.07569048
0001a0 76 83 fc 3d 6b 2e 03 3e a4 c2 8d 3d 4b 55 05 be
       0.12329762 0.12810676 0.069218904 -0.13020818
0001b0 3c 20 db bd ba a7 ed 3d 70 f9 e2 3c 4c 0a 04 3d
       -0.106995076 0.11604257 0.027706832 0.032236382
0001c0 28 1e a2 3d 48 ba 1b be 0a 37 2a bd a2 46 8b bd
       0.07915908 -0.1520778 -0.041556396 -0.068005815
0001d0 88 6e f3 bd 6c 44 5e bd f4 de 50 bd 40 7e 98 bc
       -0.118863165 -0.05426447 -0.050993875 -0.018614888
0001e0 00 8a 25 bc 58 48 0f bd 8c 88 b4 3d 06 6e d0 3d
       -0.010103703 -0.0349811 0.08815107 0.10177235
0001f0 52 de cf 3d d3 02 00 3e 86 66 b9 3d 8e c1 d3 3d
       0.10149826 0.12501077 0.09052758 0.10339652
000200 44 d0 33 bd 7a 8f 14 be d4 da 6e bd f6 4f ea 3d
       -0.04389979 -0.14507857 -0.05831416 0.114410326
000210 20 b4 53 3c 18 88 ee bd 86 db 2b bd a2 0b a6 bd
       0.012921363 -0.116470516 -0.0419574 -0.081076875
000220 26 6b df bd 5a e6 58 bd 3e c6 b0 3d 36 74 a5 3d
       -0.10909109 -0.052954055 0.08631562 0.08078806
000230 16 31 c9 3d 82 cd d7 3d 42 8c 1d be b0 c4 49 3d
       0.098238155 0.105372444 -0.15385535 0.04925984
000240 73 34 07 3e 46 8c db 3d c8 cd aa 3d 92 e5 36 bd
       0.13203602 0.107201144 0.08340031 -0.04465253
000250 b6 ea 30 bd 12 9c 12 be 93 a4 1b be f0 3b ef bc
       -0.043192588 -0.14317349 -0.15199499 -0.029203385
000260 04 e1 5e 3d f0 d3 1e be 56 d4 bd 3d fa e0 0e be
       0.05441381 -0.15510535 0.092690155 -0.13953009
000270 52 7f ee bd 28 b3 53 3d f0 78 12 be e5 84 1e be
       -0.11645378 0.05168453 -0.14303946 -0.15480383
